HOMEWORKS/HW1/notebooks/eda/MODELS/LSTM2/model.pt (torch, 698341 bytes, 6 tensors)

lstm.weight_ih_l0 f4 [800, 15]
-0.04280744 -0.04809585 0.042618163 0.060537893 0.026816547 0.016035335 0.013860771 -4.6008015e-05
-0.024847956 0.03601615 -0.0010389069 0.05805402 -0.004203971 -0.04840567 -0.020527419 -0.05909165
0.0264097 -0.06648059 0.065805815 0.054388598 0.06375274 0.07164983 -0.014747877 0.045026142
-0.065750115 -0.013577547 0.037444845 0.039287917 -0.029410519 0.04669904 0.06139009 -0.012270326
-0.0031568264 0.06628915 0.03570935 -0.057585847 0.046911858 0.039704137 -0.05049567 0.058839288
0.0033320105 -0.023669863 0.04659276 -0.005174155 0.044409778 -0.06816378 -0.06295774 0.036299784
-0.0037144397 -0.06350927 0.061365396 -0.020861115 -0.024985628 -0.055507958 0.01474193 0.044176687
0.0394322 0.06387912 -0.025164783 0.046796866 0.009531926 0.055585694 0.047660023 0.021763528
-0.07593024 0.02085504 -0.008167396 0.059611116 0.06763483 0.00015206562 -0.018195225 -0.07299555
-0.05692734 -0.04843635 0.04645354 0.024239594 -0.06669366 0.05804546 -0.058511786 0.020116935
-0.068856865 0.010643528 -0.038043775 0.049909852 0.040350113 0.059989084 0.008351136 0.06409923
0.058451217 0.01922292 -0.003732233 0.05005449 -0.030246727 0.018438855 0.029203922 0.049803246
-0.06702902 -0.059454523 -0.0007523159 0.019179096 -0.053832773 -0.025543055 0.013028952 0.06379574
-0.013366602 0.0054215174 -0.01360292 0.044487573 0.030027075 -0.017851628 0.057040133 -0.0009083081
-0.06591986 -0.041859694 0.06208854 0.017625239 -0.06190774 0.015092502 -0.05712602 0.026899066
-0.025412312 0.050950058 -0.0279601 -0.062139455 -0.032507826 0.0033071202 0.04240745 0.053198665
0.061950568 -0.057833854 0.044840474 0.023627236 0.031683 0.033915013 -0.0030015884 0.036505383
0.01815419 -0.05101512 0.028535083 0.052569076 -0.05272945 -0.033553194 -0.031239316 0.040255096
0.035227563 -0.046566818 0.03191165 -0.06099718 0.019607158 0.040160067 -0.05211495 0.03954833
-0.046586756 0.03027003 0.008928051 0.07395453 -0.009086364 0.02684848 -0.0040884856 0.020837141
-0.07929584 0.00605094 0.050991595 0.0424449 0.046643764 -0.053842325 -0.022216367 0.043011416
0.024841353 -0.060088705 -0.09136704 0.0047950977 -0.0044695684 -0.056161128 0.019604506 -0.016196826
-0.05490254 -0.010882722 -0.057871543 -0.054755934 -0.049953267 0.052552085 -0.042320147 0.04080433
-0.0705601 -0.007722911 0.04480635 -0.024115358 -0.0009752627 -0.054985955 -0.058176916 -0.0036962556
0.06574928 -0.06553586 0.06019585 0.02869283 0.023025865 -0.059105925 0.029500246 0.066303864
0.041038353 -0.04702635 0.03142996 -0.06854594 -0.01384846 0.030642916 0.00857904 0.063603446
-0.03843248 -0.06821842 0.06277491 0.042702455 -0.02501602 0.047229994 -0.06083508 0.011738522
-0.056477416 -0.034834217 -0.06339509 -0.028395738 -0.022477651 -0.00465065 0.0019141462 -0.013973023
-0.014515674 -0.05304667 0.06042596 0.019778952 0.02476689 0.050129488 -0.056190293 0.028018892
-0.03948681 -0.043672632 -0.02037362 -0.053487856 -0.050433334 -0.039208405 -0.03072031 0.06262323
-0.010044672 0.01112795 0.03541377 -0.00443983 0.06422334 0.042360194 0.033924732 0.0030190826
-0.013192964 -0.023573646 0.062425826 0.06757451 0.04160972 -0.01929577 0.06963136 -0.005810334
00000000: db56 2fbd 2700 45bd 6290 2e3d 95f6 773d
00000010: 60ae db3c 895c 833c 4a18 633c bbf8 40b8
00000020: f18d cbbc ac85 133d ee2b 88ba 0dca 6d3d
00000030: 77c1 89bb 0645 46bd 1e29 a8bc 160a 72bd
00000040: 2859 d83c fa26 88bd 33c5 863d 94c6 5e3d
00000050: cc90 823d 25bd 923d 14a1 71bc 556d 383d
00000060: ffa7 86bd 5c74 5ebc c45f 193d 5eec 203d
00000070: 54ee f0bc 7e47 3f3d 2d74 7b3d 7a09 49bc
00000080: c2e2 4ebb 9bc2 873d f843 123d 23df 6bbd
00000090: a626 403d cea0 223d 8cd4 4ebd 7701 713d
000000a0: dc5d 5a3b 4de7 c1bc 0dd8 3e3d f58b a9bb
000000b0: 07e7 353d 7499 8bbd fdef 80bd 15af 143d
000000c0: f56d 73bb 2611 82bd 485a 7b3d eee4 aabc
000000d0: a9ae ccbc 505c 63bd 2388 713c 9df2 343d
000000e0: a983 213d 0ed3 823d 6026 cebc 12ae 3f3d
000000f0: cc2b 1c3c d3ad 633d 2837 433d 6d49 b23c
00000100: 5081 9bbd 30d8 aa3c 8bd0 05bc c92a 743d
00000110: 2184 8a3d ce73 1f39 270e 95bc b17e 95bd
00000120: a42c 69bd 3265 46bd 1146 3e3d 1d92 c63c
00000130: b096 88bd 14c1 6d3d 0eaa 6fbd 45cc a43c
00000140: d404 8dbd 3162 2e3c cad3 1bbd 466e 4c3d
00000150: 2946 253d 1db7 753d 34d3 083c 7546 833d
00000160: 8b6a 6f3d 6379 9d3c 7b98 74bb f005 4d3d
00000170: fcc7 f7bc 150d 973c 103d ef3c 7dfe 4b3d
00000180: 8346 89bd 9686 73bd 1137 45ba 7b1d 9d3c
00000190: c17f 5cbd ab3f d1bc 6377 553c 57a7 823d
000001a0: 98ff 5abc fca6 b13b c8de 5ebc 9a38 363d
000001b0: 57fb f53c 943d 92bc eaa2 693d 861b 6eba
000001c0: fe00 87bd 1275 2bbd 8e50 7e3d ce62 903c
000001d0: f892 7dbd 8b46 773c f9fc 69bd 6e5b dc3c
000001e0: 7b2d d0bc 02b1 503d 940c e5bc f185 7ebd
000001f0: ed26 05bd 45bc 583b 6fb3 2d3d d8e6 593d
00000200: e1bf 7d3d 31e3 6cbd a5aa 373d e88d c13c
00000210: 09c6 013d 78ea 0a3d 4cb6 44bb ab86 153d
00000220: 19b8 943c 3bf5 50bd 68c2 e93c ac52 573d
00000230: d6fa 57bd 136f 09bd 98e9 ffbc 87e2 243d
00000240: c74a 103d d9bc 3ebd cab5 023d 2ed8 79bd
00000250: 319f a03c e27e 243d 7c76 55bd 6efd 213d
00000260: c1d1 3ebd dbf8 f73c f646 123c 7975 973d
00000270: f9de 14bc 58f1 db3c b4f8 85bb a7b2 aa3c
00000280: db65 a2bd f746 c63b 90dc 503d b4da 2d3d
00000290: 880d 3f3d c589 5cbd 19ff b5bc bd2c 303d
000002a0: 1880 cb3c 931f 76bd a51e bbbd 3220 9d3b
000002b0: 7575 92bb 3609 66bd a199 a03c 35af 84bc
000002c0: 7ce1 60bd 724d 32bc b60a 6dbd c247 60bd
000002d0: cc9b 4cbd db40 573d e457 2dbd 7122 273d
000002e0: d081 90bd 7910 fdbb dd86 373d 928d c5bc
000002f0: c6a8 7fba f438 61bd eb4a 6ebd e13c 72bb
00000300: 8fa7 863d aa37 86bd ec8f 763d 3a0d eb3c
00000310: bda0 bc3c 0e19 72bd 80aa f13c 52ca 873d
00000320: d517 283d b49e 40bd b4bc 003d d061 8cbd
00000330: a7e4 62bc da06 fb3c 1a8f 0c3c 8642 823d
00000340: 606b 1dbd 19b6 8bbd 2290 803d c5e8 2e3d
00000350: 65ee ccbc 3d74 413d 342e 79bd ee52 403c
00000360: dd54 67bd 53ae 0ebd 49d5 81bd 2e9e e8bc
00000370: 0d23 b8bc 7b64 98bb 17e4 fa3a 1bef 64bc
00000380: 26d3 6dbc 7747 59bd 3681 773d 7807 a23c
00000390: efe3 ca3c 9454 4d3d cb27 66bd e087 e53c
000003a0: ecbc 21bd 13e2 32bd 94e6 a6bc 1516 5bbd
000003b0: 2f93 4ebd fe98 20bd 29a9 fbbc 9c40 803d
000003c0: 6892 24bc 0152 363c 070e 113d fe7b 91bb
000003d0: 8787 833d e281 2d3d a9f4 0a3d cddb 453b
000003e0: 4d27 58bc 851d c1bc 39b2 7f3d 8164 8a3d
000003f0: f46e 2a3d 2a12 9ebc e39a 8e3d 9d64 bebb

lstm.weight_hh_l0 f4 [800, 200]
-0.023850443 -0.05523417 0.03261405 0.03934381 0.030726306 -0.04395725 -0.01957794 -0.01777834
-0.03886 0.03813648 0.015389675 -0.044226393 -0.0011973778 -0.03926768 -0.020531861 0.018435774
-0.0029955176 -0.041537404 -0.027809672 -0.03837479 -0.036635254 0.023402624 -0.054177612 0.00508073
0.025614114 0.04564461 0.064414434 -0.05165814 0.02858874 0.035824094 0.0001786593 0.013942492
-0.059346676 0.017063169 0.061832942 0.03307223 0.042241745 -0.021636464 -0.009801056 0.059624698
0.0334265 0.029785624 0.035205264 0.008988969 0.0119341845 -0.052747853 -0.022033865 0.030730113
-0.02476132 -0.0071905684 0.06369674 -0.067206584 0.0012939549 0.007916704 0.024062635 0.041110635
0.063537404 -0.06400209 -0.03421994 0.043666616 -0.00285044 -0.064134166 0.010297916 0.009086659
0.00933153 -0.04349167 0.014444514 0.034838594 -0.009786635 -0.0031895365 0.054523773 -0.054287393
0.06399032 0.03944257 0.014455948 -0.044278823 -0.06819454 -0.0050198794 0.05213099 0.016464826
-0.037296657 -0.033206165 0.043704804 -0.042211346 0.055979528 -0.053206902 0.059646383 -0.041318256
0.047054693 0.044107568 -0.038194824 -0.012259024 0.03720831 0.05793763 0.06929313 0.014210162
0.054491237 0.033916596 0.045796424 -0.03468712 0.0013591816 0.010147504 -0.051879242 0.0438551
0.016865833 -0.0695404 0.05483823 -0.057160065 -0.008380092 -0.028025825 0.011433743 0.011525515
-0.0442524 0.00912192 0.054161586 0.017227136 0.02920248 -0.022804644 -0.015479749 0.043954395
0.06152132 -0.0254088 -0.00079006114 -0.03860046 -0.049863398 -0.049099147 0.027557733 -0.067620285
-0.03219822 -0.026619479 0.064037025 -0.011453853 0.0053694644 0.03622345 0.038861115 0.05487295
-0.0033791868 -0.061595935 -0.015644172 -0.046788245 0.013344892 -0.039241083 0.034522288 0.052995667
0.06110031 -0.048060633 -0.044814266 -0.009128267 0.020654162 -0.06925355 0.0053842873 -0.06366041
-0.04679379 0.015984286 -0.059615675 0.02486866 0.0055550756 -0.063890055 0.04269309 -0.06979986
-0.04539108 -0.008283523 0.031355537 -0.0007648735 -0.009903212 0.008415562 -0.015489103 -0.024248928
-0.023079706 -0.039978173 0.011558521 -0.06628821 0.06693587 0.06446146 -0.055045947 0.015959622
0.051130116 -0.013089511 -0.04728732 -0.029333018 -0.041083474 0.043036766 0.014402928 0.07001088
0.04100234 0.042815052 0.009968235 -0.06399598 0.051721994 0.05394497 0.024325611 0.019757496
-0.029580487 -0.033869736 0.05180986 0.044221513 -0.03907303 0.005770701 -0.046885088 0.0706218
-0.061382007 -0.05546593 0.037246294 -0.0051791174 0.07027502 0.051411532 -0.00097015407 0.041374005
0.02299991 -0.03746502 0.05344896 0.07189609 -0.027272489 0.027011445 0.036492154 0.047579486
0.054487135 0.017703205 -0.053315014 0.038133126 0.03857615 -0.0027402204 -0.035390034 -0.033159126
-0.030267052 -0.019190853 0.015784113 0.04645764 0.041563287 -0.07000868 -0.049632844 0.0076146573
0.038264412 0.050236233 -0.054490052 -8.11962e-05 -0.026056118 0.061467696 -0.066809244 -0.03648843
-0.016684396 0.04801843 0.04544232 -0.06158281 0.039986543 0.063894056 -0.04968655 -0.06779416
0.0515308 -0.05187657 -0.052052345 0.05227663 0.0006305043 0.046397153 -0.059616163 0.007813343
00000000: 0162 c3bc 3a3d 62bd 4f96 053d fa26 213d
00000010: bcb5 fb3c 840c 34bd eb61 a0bc e2a3 91bc
00000020: aa2b 1fbd ff34 1c3d fa24 7c3c bc26 35bd
00000030: 55f1 9cba 26d7 20bd 6f32 a8bc 9f06 973c
00000040: 7250 44bb 2023 2abd 1cd1 e3bc e22e 1dbd
00000050: d90e 16bd dcb6 bf3c 58e9 5dbd 417c a63b
00000060: b1d4 d13c d8f5 3a3d b7eb 833d 7c97 53bd
00000070: ef32 ea3c 49bc 123d 7e56 3b39 0d6f 643c
00000080: 8015 73bd 0fc8 8b3c 8a44 7d3d bf76 073d
00000090: ae05 2d3d f43e b1bc 9c94 20bc 0739 743d
000000a0: 3aea 083d fb00 f43c 6533 103d 7846 133c
000000b0: 9987 433c 220e 58bd 5d80 b4bc b8bd fb3c
000000c0: 40d8 cabc dc9e ebbb 7073 823d 9ba3 89bd
000000d0: ec99 a93a 10b5 013c 011f c53c a063 283d
000000e0: e61f 823d 8713 83bd 352a 0cbd c4db 323d
000000f0: 73ce 3abb c658 83bd 97b8 283c 36e0 143c
00000100: 46e3 183c 5224 32bd afa8 6c3c eab2 0e3d
00000110: 1f58 20bc 8b07 51bb 5254 5f3d 755c 5ebd
00000120: 5b0d 833d 888e 213d a4d8 6c3c b65d 35bd
00000130: 94a9 8bbd cd7d a4bb 4e87 553d 3ee1 863c
00000140: 61c4 18bd 3003 08bd cf03 333d cee5 2cbd
00000150: ca4a 653d 7bef 59bd c44f 743d 553d 29bd
00000160: 6cbc 403d 23aa 343d 2d72 1cbd 13da 48bc
00000170: be67 183d 0250 6d3d 8ee9 8d3d bdd1 683c
00000180: 3432 5f3d 21ec 0a3d 0895 3b3d 1514 0ebd
00000190: 9126 b23a b741 263c 547f 54bd 68a1 333d
000001a0: 372a 8a3c 326b 8ebd 0d9e 603d ac20 6abd
000001b0: a74c 09bc 6a96 e5bc 9854 3b3c 83d5 3c3c
000001c0: 0142 35bd 1b74 153c 8ad8 5d3d ec1f 8d3c
000001d0: 0a3a ef3c ced0 babc c69e 7dbc 8609 343d
000001e0: c8fd 7b3d 1e26 d0bc 1b1c 4fba 841b 1ebd
000001f0: 903d 4cbd 301c 49bd c1c0 e13c 817c 8abd
00000200: 48e2 03bd 1811 dabc d825 833d f1a8 3bbc
00000210: 55f2 af3b 0a5f 143d d52c 1f3d 75c2 603d
00000220: 5975 5dbb 054c 7cbd 3528 80bc 08a5 3fbd
00000230: 89a4 5a3c 42bb 20bd 3e67 0d3d fc11 593d
00000240: 5244 7a3d 3adb 44bd 2a8f 37bd ba8e 15bc
00000250: eb32 a93c ced4 8dbd ad6e b03b 6460 82bd
00000260: d8aa 3fbd 7af1 823c 912f 74bd 5cb9 cb3c
00000270: 5a07 b63b cad8 82bd f3de 2e3d 3bf3 8ebd
00000280: ffeb 39bd 9db7 07bc aa6e 003d cb81 48ba
00000290: 1541 22bc 6de1 093c 02c6 7dbc b0a5 c6bc
000002a0: a711 bdbc 27c0 23bd f35f 3d3c 1dc2 87bd
000002b0: ac15 893d 5f04 843d dc77 61bd c1bd 823c
000002c0: d06d 513d 6375 56bc 59b0 41bd cc4b f0bc
000002d0: 2547 28bd 5247 303d 42fa 6b3c dd61 8f3d
000002e0: 12f2 273d d65e 2f3d cf51 233c 5310 83bd
000002f0: 71da 533d 67f5 5c3d 8146 c73c 79da a13c
00000300: c752 f2bc feba 0abd 9336 543d 9e21 353d
00000310: 0b0b 20bd 2618 bd3b 940a 40bd 2aa2 903d
00000320: b36b 7bbd 3e30 63bd 928f 183d 96b5 a9bb
00000330: 5aec 8f3d e694 523d f051 7eba ca77 293d
00000340: 4f6a bc3c ec74 19bd 4ced 5a3d 423e 933d
00000350: 8e6a dfbc 1b47 dd3c cc78 153d b5e2 423d
00000360: e72d 5f3d 5006 913c d860 5abd 7b31 1c3d
00000370: 0602 1e3d 4595 33bb 24f5 10bd ddd1 07bd
00000380: 9cf2 f7bc 2336 9dbc af4d 813c 5e4a 3e3d
00000390: 443e 2a3d b660 8fbd cf4b 4bbd 6084 f93b
000003a0: 25bb 1c3d 82c4 4d3d f630 5fbd e147 aab8
000003b0: a473 d5bc 8dc5 7b3d 49d3 88bd e474 15bd
000003c0: b7ad 88bc f9ae 443d ba21 3a3d 423e 7cbd
000003d0: eec8 233d e3da 823d 2084 4bbd aad7 8abd
000003e0: f611 533d 877c 54bd d734 55bd 0520 563d
000003f0: 6d48 253a f10a 3e3d 1430 74bd 8903 003c

lstm.bias_ih_l0 f4 [800]
-0.027042903 0.017684594 -0.06624064 0.06980324 0.03415469 0.067303285 -0.04725724 0.016625445
0.052840523 -0.01654624 -0.016403627 0.0077776667 0.04211125 -0.06742052 0.013207211 0.0041273157
0.016003804 0.027913164 -0.014442457 -0.029850118 0.056533508 -0.06164657 0.063407555 -0.027305055
-0.032428358 0.06670508 -0.06279039 0.0063586286 0.02088976 -0.024992635 -0.03273657 0.026827436
0.0010041391 -0.024546383 -0.022162387 0.0017389376 0.016559757 0.030715993 0.05877855 0.020022592
-0.04171642 0.002934483 -0.00024199852 -0.032715257 -0.06775896 0.07116255 0.0032509724 -0.065316424
-0.0399922 0.035314213 -0.027550576 0.04837034 0.053438935 0.06116978 -0.029869223 0.056565356
0.030686248 0.010547332 0.011279459 -0.025524156 -0.05526581 0.027689634 -0.043788012 0.04647815
-0.0025880788 0.0062881606 0.0338302 -0.04123538 0.0025412927 0.058030516 -0.01497626 0.046128463
0.049479116 -0.035052788 -0.0042596958 0.035303336 -0.021390023 0.09439247 0.03684293 0.06597546
0.021367563 0.008803376 0.067489386 -0.048228126 0.020848813 -0.06407218 -0.034082476 0.039005145
0.030885493 0.010157846 -0.028270453 -0.045098044 -0.04221515 -0.06491903 0.01628476 -0.057135254
-0.06510867 -0.037239507 0.07585884 0.042215504 0.019222884 -0.03757537 0.042761996 -0.0569966
0.005634272 0.02586996 0.041235182 0.048181083 0.07906957 -0.01930589 0.040569015 -0.04308458
-0.063152395 0.0052865734 -0.034151863 0.015444827 0.009821461 -0.00057832076 0.03331755 0.04611279
0.01922385 0.06645439 -0.037273027 0.054744437 0.06822623 0.075698406 0.020189853 -0.016146852
0.035699856 0.017905079 0.03142796 -0.02354141 -0.0057954625 0.020594666 -0.04186616 0.061208073
-0.010141462 -0.035418857 -0.00090564 -0.011643026 0.060610548 0.050460678 0.0619998 0.03923706
-0.050367694 -0.021631759 -0.026833216 0.009643437 -0.032029845 0.005776508 -0.057270274 0.052716676
0.06953828 0.037709687 -0.06684307 0.07404296 -0.0012790513 0.08289689 0.029784113 -0.014817538
-0.019205192 -0.044979576 0.017036684 -0.018186742 0.046080146 -0.047972064 0.008841593 0.083715215
0.030305633 -0.019303964 0.035504226 0.06244965 -0.039616734 -0.04716296 0.029127669 0.05395975
0.0034233672 -0.04579897 -0.051531754 0.07180743 0.025897602 -0.013576307 0.007189518 -0.010422405
0.07076737 0.04226419 -0.01723882 -0.007714822 0.043652393 0.079700865 0.00846924 -0.0036599564
0.052216627 0.06980817 0.07579104 -0.058522604 0.04328006 -0.060163297 0.03415933 -0.039332595
-0.0047421204 -0.044796124 0.05758052 -0.031228576 0.00019230948 -0.04601754 -0.060030073 0.037667524
0.0533757 0.023164293 0.006028881 -0.025629744 -0.013120934 0.057350453 -0.07033049 -0.07351516
0.06756661 0.06600376 -0.03999725 -0.004057147 -0.0055542174 0.033836022 -0.05952812 -0.07237205
0.05147682 0.044628903 -0.020003883 0.02964189 -0.019067569 -0.014003263 0.023879392 -0.039193362
0.04241933 0.033443645 -0.055429295 -0.05884679 -0.022774981 0.02476492 -0.054876667 -0.022735503
-0.050619386 0.0707075 -0.008804214 0.01750472 0.05293497 0.0043902146 -0.0012255812 0.04332833
0.031954285 0.063196816 -0.017714804 -0.026997434 0.0600232 -0.035225086 -0.053778447 -0.018331647
00000000: 1489 ddbc 48df 903c 2ca9 87bd 00f5 8e3d
00000010: cae5 0b3d 4ed6 893d cf90 41bd 1632 883c
00000020: 4e6f 583d fb8b 87bc e660 86bc ccdb fe3b
00000030: d97c 2c3d c513 8abd 0f63 583c 6f3e 873b
00000040: 691a 833c 26aa e43c 0ea0 6cbc 3c88 f4bc
00000050: ae8f 673d 1d81 7cbd d2db 813d daae dfbc
00000060: 99d3 04bd ac9c 883d 3f98 80bd 0b5c d03b
00000070: 0121 ab3c 5bbd ccbc c816 06bd 36c5 db3c
00000080: 519d 833a 7f15 c9bc e58d b5bc 10ed e33a
00000090: 54a8 873c 1ba0 fb3c c7c1 703d 6b06 a43c
000000a0: d6de 2abd 7550 403b fcc0 7db9 6f00 06bd
000000b0: 36c5 8abd acbd 913d 440e 553b 9ec4 85bd
000000c0: dcce 23bd a3a5 103d bfb1 e1bc fa1f 463d
000000d0: c9e2 5a3d 2a8d 7a3d 4db0 f4bc 13b1 673d
000000e0: ba61 fb3c b8ce 2c3c 7bcd 383c 0918 d1bc
000000f0: 675e 62bd 5fd5 e23c 0f5b 33bd df5f 3e3d
00000100: c29c 29bb ea0c ce3b 8991 0a3d 6ee6 28bd
00000110: d18b 263b 68b1 6d3d fd5e 75bc 33f1 3c3d
00000120: 9daa 4a3d 8393 0fbd eb94 8bbb 3b9a 103d
00000130: 213a afbc d750 c13d 9de8 163d 241e 873d
00000140: 070b af3c 093c 103c e037 8a3d db8a 45bd
00000150: 21cb aa3c 4638 83bd 119a 0bbd dcc3 1f3d
00000160: 9303 fd3c 186d 263c 7097 e7bc bab8 38bd
00000170: cbe9 2cbd 45f4 84bd 9e67 853c a806 6abd
00000180: b257 85bd 7488 18bd e15b 9b3d 2aea 2c3d
00000190: 4f79 9d3c a2e8 19bd 3427 2f3d 4475 69bd
000001a0: b39f b83b 3ded d33c 39e6 283d 8759 453d
000001b0: 3aef a13d 6327 9ebc b22b 263d 7579 30bd
000001c0: 0b56 81bd fe3a ad3b d3e2 0bbd 4d0c 7d3c
000001d0: 31ea 203c 739a 17ba fc77 083d c4e0 3c3d
000001e0: 567b 9d3c 3d19 883d 9aab 18bd b43b 603d
000001f0: 32ba 8b3d c407 9b3d 3165 a53c 6746 84bc
00000200: 033a 123d acad 923c 9bba 003d ead9 c0bc
00000210: dde7 bdbb 25b6 a83c da7b 2bbd 51b5 7a3d
00000220: 6028 26bc 5d13 11bd 7968 6dba 64c2 3ebc
00000230: c442 783d dbaf 4e3d 81f3 7d3d 0ab7 203d
00000240: 5b4e 4ebd 1635 b1bc 55d1 dbbc 82ff 1d3c
00000250: ba31 03bd dc48 bd3b 3c94 6abd 71ed 573d
00000260: 166a 8e3d 7975 1a3d 05e5 88bd d6a3 973d
00000270: d7a5 a7ba d8c5 a93d d0fd f33c 42c5 72bc
00000280: 3554 9dbc 813c 38bd 8490 8b3c 5dfc 94bc
00000290: 89be 3c3d 5b7e 44bd 54dc 103c e272 ab3d
000002a0: 8543 f83c 5923 9ebc e16c 113d 34cb 7f3d
000002b0: 2845 22bd f32d 41bd 269d ee3c e604 5d3d
000002c0: 925a 603b b397 3bbd f612 53bd c60f 933d
000002d0: 3527 d43c 296f 5ebc 0c96 eb3b bcc2 2abc
000002e0: 7cee 903d 371d 2d3d 6d38 8dbc 9ecc fcbb
000002f0: dacc 323d 353a a33d 91c2 0a3c e1db 6fbb
00000300: 1ae1 553d 96f7 8e3d 5538 9b3d 66b5 6fbd
00000310: 6f46 313d ca6d 76bd a7ea 0b3d 371b 21bd
00000320: ca63 9bbb 247c 37bd 8dd9 6b3d 12d3 ffbc
00000330: afa6 4939 e37c 3cbd 18e2 75bd 4349 1a3d
00000340: 7aa0 5a3d 0bc3 bd3c eb8d c53b 78f5 d1bc
00000350: 30f9 56bc 4fe8 6a3d 6f09 90bd 1e8f 96bd
00000360: 5d60 8a3d fb2c 873d 28d4 23bd d1f1 84bb
00000370: 2700 b6bb a497 0a3d c2d3 73bd cc37 94bd
00000380: 5cd9 523d cccc 363d 2fdf a3bc 8dd3 f23c
00000390: 9733 9cbc f16d 65bc b79e c33c 3889 20bd
000003a0: e4bf 2d3d 34fc 083d d409 63bd 5509 71bd
000003b0: 9992 babc cddf ca3c 5bc6 60bd ce3f babc
000003c0: 4656 4fbd 18cf 903d 8d3f 10bc 0f66 8f3c
000003d0: 57d2 583d cadb 8f3b aea3 a0ba 0c79 313d
000003e0: 7fe2 023d 556d 813d a31e 91bc b929 ddbc
000003f0: e3da 753d 2e48 10bd ca46 5cbd 402c 96bc

lstm.bias_hh_l0 f4 [800]
-0.06522426 0.0458054 -0.031733222 0.04886955 0.06798925 0.030805314 -0.05677215 -0.03747871
0.0012024334 0.08449004 0.02996563 0.003869645 0.0149237495 0.011424427 0.020397006 -0.061870232
0.06476319 0.05094651 -0.044436388 0.014007389 -0.015226204 0.02146378 0.028317757 -0.013701318
0.0077251135 0.054468006 -0.014136442 -0.03077734 -0.015954165 0.069867924 0.06840138 0.030977525
-0.053329885 -0.06037842 0.05210611 -0.037176095 -0.05125538 -0.058745336 0.03244655 0.019567605
0.0430961 -0.023325969 0.018597426 -0.06470144 0.01809559 0.00953602 0.0529594 -0.031345144
-0.0043893354 0.004048813 -0.005761379 0.034627657 0.0315756 -0.031750444 0.02788275 0.05245753
-0.026306551 -0.011194607 -0.037182063 0.03755661 -0.004834691 0.08281535 -0.017125295 0.011229965
-0.057386685 -0.050987475 0.06632673 -0.04723617 0.06469565 0.043823846 0.045754235 0.0020689825
-0.05111284 -0.03775354 0.06467472 -0.0067832586 0.0081222905 0.08248514 0.076272294 -0.030580135
0.034658212 0.014956914 0.03610908 0.013725632 0.039706014 -0.047113612 0.010060072 -0.05573003
0.0047118524 -0.007968891 0.03660083 -0.022329567 -0.025578944 -0.058922406 0.004431981 -0.0067797736
-0.052510295 -0.026116619 0.06611773 0.039474964 0.0054677874 0.046773043 0.0020978276 -0.026949773
0.061494008 -0.059357334 -0.035260152 -0.04251513 0.003968614 -0.0542747 0.032547757 0.028162189
-0.051132403 -0.010247097 -0.015306873 0.0046287933 0.0026313707 -0.0033080175 -0.047005195 -0.0008261054
-0.00057488435 0.026027104 0.03821381 0.03473679 -0.02099584 0.015665015 -0.014352422 -0.027374407
0.009473364 -0.05859932 0.05709246 0.017416615 -0.05790653 -0.06312562 -0.04653785 0.0070123775
-0.009974231 0.047315557 0.035780035 -0.046613067 0.06717472 -0.005917249 -0.047975115 -0.07023436
-0.03907762 -0.06248822 0.061399907 0.027456434 -0.037360646 0.04840789 -0.064807884 -0.06792264
-0.0032310996 0.03996274 0.072358996 0.04133599 0.0364046 0.047080126 0.014388774 0.007950975
0.005217358 -0.062579535 0.031715307 -0.018686248 0.002532277 0.058777053 0.048136868 -0.054062605
0.043159366 0.012276266 -0.015000756 0.019501783 -0.01975917 -0.033971306 0.011429528 0.051835414
-0.00447766 -0.033367917 0.03895357 0.011726972 0.011485221 -0.020622216 0.04188602 -0.036611807
-0.063434094 -0.020698164 -0.012727313 -0.053733803 -0.052947808 -0.026968965 0.03798621 0.028624784
-0.040581398 0.052185934 0.026130356 -0.0372224 0.005604962 -0.014892371 0.0108468495 0.061588313
0.01910971 -0.058338482 -0.06752875 0.017910007 0.027759025 0.06778843 -0.010760115 -0.052071802
-0.0035057366 -0.024984889 -0.00879588 -0.037703723 -0.004069008 0.019119678 0.043960713 -0.0386757
-0.0077237817 0.022463685 -0.01654984 -0.0152066415 0.01166917 -0.053859882 -0.055802263 0.051460065
0.021907091 -0.012202125 -0.0057091704 0.0325307 -0.047621153 -0.04027967 -0.005114277 -0.020488704
0.06584723 0.0040577473 0.006208448 0.038289268 -0.048904445 -0.040753398 0.03130302 -0.044462964
-0.014237966 0.047220208 -0.048519548 -0.012629767 -0.040999126 -0.050757863 -0.012757812 -0.02295483
-0.060517658 0.06575648 0.06652874 0.021106472 -0.074589744 -0.04809359 -0.04286206 0.001884325
00000000: 4c94 85bd 719e 3b3d b2fa 01bd 702b 483d
00000010: f33d 8b3d 6d5b fc3c ea89 68bd 4783 19bd
00000020: f89a 9d3a 1d09 ad3d 7b7a f53c df99 7d3b
00000030: be82 743c 852d 3b3c 9f17 a73c a46b 7dbd
00000040: 90a2 843d 4aad 503d ee02 36bd 3f7f 653c
00000050: 5477 79bc cfd4 af3c a4fa e73c 7e7b 60bc
00000060: f322 fd3b d819 5f3d 899c 67bc c320 fcbc
00000070: 4fb2 82bc ea16 8f3d 0616 8c3d 94c4 fd3c
00000080: 7070 5abd 5d4f 77bd 376d 553d f645 18bd
00000090: 29f1 51bd f39e 70bd ace6 043d 3e4c a03c
000000a0: 8985 303d 1a16 bfbc a159 983c 3082 84bd
000000b0: 343d 943c f83c 1c3c f5eb 583d c463 00bd
000000c0: 6ad4 8fbb e8ab 843b f3c9 bcbb bbd5 0d3d
000000d0: 6b55 013d c10c 02bd 5d6a e43c b5dd 563d
000000e0: d680 d7bc 9669 37bc 384c 18bd f6d4 193d
000000f0: 546c 9ebb 189b a93d 594a 8cbc e3fd 373c
00000100: 4d0e 6bbd 3ed8 50bd 4fd6 873d b77a 41bd
00000110: 277f 843d a280 333d cb68 3b3d c497 073b
00000120: b35b 51bd 75a3 1abd 2e74 843d 1946 debb
00000130: 5b13 053c f8ed a83d a634 9c3d 3183 fabc
00000140: c5f5 0d3d d80d 753c 1de7 133d 79e1 603c
00000150: c6a2 223d 34fa 40bd 00d3 243c 2c45 64bd
00000160: e265 9a3b f48f 02bc c0ea 153d 7fec b6bc
00000170: ef8a d1bc 9f58 71bd 273a 913b dd28 debb
00000180: 0915 57bd 85f2 d5bc bc68 873d 80b0 213d
00000190: 202b b33b 1795 3f3d b57b 093b c5c5 dcbc
000001a0: 24e1 7b3d ad20 73bd f36c 10bd 5824 2ebd
000001b0: 260b 823b 264f 5ebd cc50 053d 64b4 e63c
000001c0: 3670 51bd 71e3 27bc aec9 7abc 22ad 973b
000001d0: 1373 2c3b 53cb 58bb 8588 40bd ff8e 58ba
000001e0: d6b3 16ba cb36 d53c 1686 1c3d 2a48 0e3d
000001f0: 78ff abbc eb53 803c 6c26 6bbc 4b40 e0bc
00000200: 2b36 1b3c d705 70bd c9d9 693d 4aad 8e3c
00000210: 662f 6dbd 0148 81bd 799e 3ebd 16c8 e53b
00000220: f56a 23bc f5cd 413d 168e 123d 58ed 3ebd
00000230: e692 893d 7be5 c1bb 8e81 44bd 08d7 8fbd
00000240: db0f 20bd a6f3 7fbd 787e 7b3d 51ec e03c
00000250: 7a07 19bd 5a47 463d ffb9 84bd 061b 8bbd
00000260: dbc0 53bb f8af 233d f430 943d ed4f 293d
00000270: fd1c 153d 17d7 403d e4be 6b3c ce44 023c
00000280: 5ff6 aa3b b329 80bd e9e7 013d e713 99bc
00000290: 8ff4 253b 35c0 703d 2a2b 453d c070 5dbd
000002a0: e0c7 303d 6422 493c bbc5 75bc 34c2 9f3c
000002b0: fcdd a1bc 7f25 0bbd ea42 3b3c 5f51 543d
000002c0: 56b9 92bb ccac 08bd c78d 1f3d 7c22 403c
000002d0: 822c 3c3c ecef a8bc ad90 2b3d 43f6 15bd
000002e0: bce9 81bd 328f a9bc 3886 50bc fa17 5cbd
000002f0: cddf 58bd 05ee dcbc 6e97 1b3d 867e ea3c
00000300: ae38 26bd ebc0 553d 540f d63c 8476 18bd
00000310: d4a9 b73b 22ff 73bc fcb6 313c 0744 7c3d
00000320: f78b 9c3c 55f4 6ebd 834c 8abd 02b8 923c
00000330: e566 e33c a9d4 8a3d 324b 30bc 3e49 55bd
00000340: 80c0 65bb 1cad ccbc 981c 10bc 386f 1abd
00000350: 5055 85bb dfa0 9c3c 2610 343d 696a 1ebd
00000360: c717 fdbb c305 b83c 8893 87bc 4725 79bc
00000370: 0c30 3f3c 2e9c 5cbd ea90 64bd cac7 523d
00000380: 8076 b33c 6ceb 47bc fe13 bbbb e93e 053d
00000390: 660e 43bd 4cfc 24bd aa95 a7bb edd7 a7bc
000003a0: eada 863d daf6 843b 3d70 cb3b 35d5 1c3d
000003b0: 0750 48bd 09ed 26bd 9837 003d cc1e 36bd
000003c0: 5c46 69bc fa69 413d 6fbc 46bd 15ed 4ebc
000003d0: b3ee 27bd 7ae7 4fbd 2406 51bc c50b bcbc
000003e0: 5de1 77bd 55ab 863d 3840 883d 7be7 ac3c
000003f0: 82c2 98bd c9fd 44bd 2190 2fbd 75fb f63a

linear.weight f4 [2, 200]
0.078783676 -0.09237724 -0.04103534 0.11171788 -0.087610304 0.05987366 0.06243003 -0.09340919
-0.07102667 -0.13221064 -0.09969446 0.15597783 0.021879781 0.028556265 -0.1195853 0.110593274
-0.05014891 -0.10042127 -0.016671397 -0.039275598 0.055730633 0.0010283802 -0.016268805 0.1513125
-0.006533666 -0.18215963 0.07783328 -0.0039781923 -0.019431587 0.032306742 -0.061863586 0.08485122
0.06710028 -0.010839551 0.11731063 -0.0056243516 -0.1425002 -0.021673495 -0.0121370265 -0.011640223
-0.10664749 -0.017795544 -0.07494919 0.05670551 -0.11731696 0.056414977 0.040698446 0.05150625
-0.11356471 -0.10648071 -0.002539945 -0.018980874 0.17289895 0.073978305 0.044492092 -0.17598438
0.011182952 0.07619526 -0.009213212 -0.012944409 0.02913415 0.18157594 -0.15451394 0.040231686
-0.06216597 0.111596614 -0.20748137 -0.065835886 -0.044254284 0.08103988 0.042054668 0.10802733
-0.024553204 0.08911359 -0.113094 0.10497545 0.010447286 0.21008477 0.09388136 0.0019845655
0.07855013 0.15011142 0.1927263 -0.13723953 -0.10825983 -0.05316184 0.1628496 0.18975675
0.069369294 -0.045057844 0.0035328744 0.019869003 -0.0298824 0.08105156 -0.10775135 0.19411345
-0.10588796 -0.026783759 -0.12437777 0.039193686 -0.07721291 -0.072379194 -0.118526585 -0.021875085
-0.021379117 0.11718139 0.0333707 -0.009841522 0.0794269 -0.11674874 -0.07275997 -0.061153542
0.0061688772 -0.04313742 -0.057673577 0.03616886 -0.1215818 0.06349701 0.0917191 -0.0047251554
-0.17567265 -0.0041328077 -0.105146915 -0.06219584 0.1812368 -0.17068546 -0.038930636 0.095743194
-0.002434507 0.11029083 -0.021642199 0.1550396 0.016388414 0.04845014 0.18239722 0.113932215
0.030901477 0.12370905 0.07723217 -0.19175713 -0.20376797 0.17302641 -0.03007238 -0.039377384
-0.01751971 -0.031659577 -0.024832096 -0.056887366 -0.0028667445 0.06172311 -0.05014969 -0.018982964
0.025157765 0.15034334 0.07843049 -0.06701441 0.109091625 -0.27697924 -0.08128867 -0.0550471
0.045766845 -0.06076203 0.10503103 0.021535976 -0.16010322 -0.07001364 -0.04182177 -0.16785958
0.007890088 -0.034833368 0.11423431 0.14866087 0.03741975 -0.068239346 -0.11167366 0.12798099
0.0019305819 0.041047733 -0.09749107 0.0474052 -0.05900613 -0.18933742 0.10215082 0.026744489
0.03505829 0.22775121 -0.03908443 -0.109893374 0.025844598 -0.18035501 0.03276791 -0.15193045
-0.11043733 -0.020428056 0.12938267 -0.009149723 0.003003888 -0.1285415 -0.009247378 0.17703679
-0.092725225 0.10965891 0.078581296 -0.029046513 0.10427745 -0.059975408 0.054618884 0.06963996
-0.0034125624 0.17338939 0.1598352 -0.13457204 -0.06014117 -0.015160746 0.12959728 -0.10728563
0.052549116 -0.015203271 0.016408496 -0.07373482 -0.06579734 -0.10322736 -0.04400365 -0.073301405
-0.06768824 0.10208623 -0.09937607 -0.04268633 -0.0658073 0.04591632 0.025218481 -0.08819651
0.006302726 0.05767535 0.012328499 -0.041330017 0.114996634 -0.0088791 0.056754105 0.07465256
0.11034348 -0.010533981 0.02374986 -0.039836045 0.018451115 -0.1294956 0.0035897181 0.0058081644
0.006206755 0.003084736 -0.0027307628 0.085280485 -0.1374177 -0.01751222 -0.04482176 0.16853
00000000: 5659 a13d 4730 bdbd ac14 28bd 58cc e43d
00000010: 086d b3bd 153e 753d a2b6 7f3d 514d bfbd
00000020: 6e76 91bd 3a62 07be 9c2c ccbd a7b8 1f3e
00000030: 3a3d b33c d4ee e93c 23e9 f4bd ba7e e23d
00000040: f268 4dbd aba9 cdbd 7492 88bc 73df 20bd
00000050: ce45 643d b7ca 863a 2846 85bc aaf1 1a3e
00000060: 5d18 d6bb 0e88 3abe 0e67 9f3d 7f5b 82bb
00000070: fe2e 9fbc 1354 043d ac64 7dbd 7ac6 ad3d
00000080: df6b 893d 5f98 31bc 8e40 f03d 7b4c b8bb
00000090: 93eb 11be 9d8c b1bc 61da 46bc a2b6 3ebc
000000a0: 006a dabd f6c7 91bc f67e 99bd 0944 683d
000000b0: e043 f0bd 6413 673d 6ab3 263d 38f8 523d
000000c0: 9d94 e8bd 8f12 dabd 3575 26bb c77d 9bbc
000000d0: 6c0c 313e f081 973d 573d 363d 4035 34be
000000e0: b338 373c 430c 9c3d 03f3 16bc c914 54bc
000000f0: beaa ee3c 0bef 393e e738 1ebe fbc9 243d
00000100: bfa1 7ebd c48c e43d ff75 54be f7d4 86bd
00000110: fb43 35bd 3df8 a53d 8441 2c3d 6f3d dd3d
00000120: cd23 c9bc 3081 b63d d49d e7bd 5efd d63d
00000130: 182b 2b3c 7620 573e df44 c03d 7c0f 023b
00000140: e4de a03d cfb6 193e 0b5a 453e 8588 0cbe
00000150: 54b7 ddbd 3bc0 59bd 0cc2 263e 984f 423e
00000160: 7d11 8e3d 938e 38bd cc87 673b 52c4 a23c
00000170: efcb f4bc 5cfe a53d bdac dcbd adc5 463e
00000180: c9db d8bd 9d69 dbbc c6b9 febd 8f89 203d
00000190: cd21 9ebd 8b3b 94bd 11be f2bd 6133 b3bc
000001a0: 4223 afbc ccfc ef3d b7af 083d 563e 21bc
000001b0: 92aa a23d f719 efbd 2e03 95bd 237c 7abd
000001c0: 4b24 ca3b ddb0 30bd 213b 6cbd cc25 143d
000001d0: e1ff f8bd b80a 823d 39d7 bb3d 7ad5 9abb
000001e0: 88e3 33be 816c 87bb 4457 d7bd 11c1 7ebd
000001f0: 2496 393e 2bc8 2ebe bb75 1fbd 0215 c43d
00000200: 408c 1fbb 29e0 e13d fb4a b1bc b3c2 1e3e
00000210: ff40 863c a773 463d 56c6 3a3e 4b55 e93d
00000220: 1825 fd3c 2c5b fd3d e62b 9e3d fb5b 44be
00000230: 8da8 50be d62d 313e 5a5a f6bc 2e4a 21bd
00000240: 7f85 8fbc 79ad 01bd ae6c cbbc ba02 69bd
00000250: fedf 3bbb 5fd1 7c3d c369 4dbd 2982 9bbc
00000260: a817 ce3c 9bf3 193e 2aa0 a03d da3e 89bd
00000270: 6e6b df3d 39d0 8dbe ad7a a6bd 1179 61bd
00000280: 0476 3b3d 9be1 78bd 821a d73d 376c b03c
00000290: 19f2 23be 5063 8fbd 4e4d 2bbd 62e3 2bbe
000002a0: 6d45 013c 6fad 0ebd aef3 e93d 8e3a 183e
000002b0: 7445 193d 12c1 8bbd 29b5 e4bd 730d 033e
000002c0: 940b fd3a ab21 283d 66a9 c7bd f42b 423d
000002d0: 69b0 71bd abe1 41be 7334 d13d 4217 db3c
000002e0: 4899 0f3d 9d37 693e ff16 20bd c70f e1bd
000002f0: 0db8 d33c fcae 38be a537 063d a893 1bbe
00000300: f82c e2bd bd58 a7bc e47c 043e b8e8 15bc
00000310: e1dc 443b 62a0 03be 5182 17bc 2249 353e
00000320: b9e6 bdbd da94 e03d 3bef a03d f4f2 edbc
00000330: 6a8f d53d c6a8 75bd 0db8 5f3d 659f 8e3d
00000340: 4ca5 5fbb fd8c 313e d7ab 233e 41cd 09be
00000350: 9656 76bd c764 78bc 26b5 043e 92b8 dbbd
00000360: be3d 573d 2417 79bc 1c6b 863c 4802 97bd
00000370: c1c0 86bd de68 d3bd 2c3d 34bd 0c1f 96bd
00000380: 22a0 8abd 9612 d13d ae85 cbbd dcd7 2ebd
00000390: fac5 86bd c012 3c3d fd96 ce3c 5fa0 b4bd
000003a0: 1987 ce3b fd3c 6c3d 79fd 493c aa49 29bd
000003b0: 5b83 eb3d a579 11bc fe76 683d 71e3 983d
000003c0: c3fb e13d b896 2cbc 118f c23c 1f2b 23bd
000003d0: cb26 973c 7f9a 04be 7a41 6b3b 6a52 be3b
000003e0: 0962 cb3b 4829 4a3b 99f6 32bb 89a7 ae3d
000003f0: 3ab7 0cbe ca75 8fbc 0697 37bd 2193 2c3e

linear.bias f4 [2]
-0.25044155 0.26796117
00000000: e039 80be 3532 893e
