HOMEWORKS/HW2/notebooks/eda/MODELS/SIMPLE/model.pt (torch, 8851 bytes, 4 tensors)

linear_one.weight f4 [100, 15]
00000000: ab7f 51bc 69f9 a1bc 0b70 1c3d 5bfd a93c
00000010: 443c b93b bac1 ecbb 9ccf 6d3b a1e1 d13c
00000020: 4857 a0bd e57b a53d 09cb 503e 58eb 393e
00000030: 86b3 60be 2184 22bd ad70 0c3e 87a1 42bd
00000040: ff71 8f3d 5cc5 ab3d 6f6c 573d f9fa 08bd
00000050: c8ea c8bd 0702 8fbd ff5d 7fbd 3a2b a33c
00000060: b368 9ebd 8328 283e 9a79 07be b6e5 973e
00000070: 1c19 f83d 48cf c9bd a680 343c fcf4 363b
00000080: 0a08 16bc e91f f73b a065 66bc bdac 9cbc
00000090: 09af 6fbb 8d1f 153a 8f10 153c 1b71 52bd
000000a0: 27e3 b63d f992 a9bd 0bcc be3d 4dde f1bd
000000b0: fafb 583e cc41 74bc e78f 303c 7a9d cd3b
000000c0: 017a c63c b221 df3b 2002 0a3c f494 fe3b
000000d0: de24 aab9 da20 cebb 6895 d73c f268 1a3e
000000e0: 8b27 a9bd 88cb 1bbd 01af 953d da64 f1bc
000000f0: ea1f 8e3b 3eec 983b cb5f b3bc 6378 d6bc
00000100: 7165 cdbc 927d 9e3b b7b9 9ebb 2db9 573c
00000110: 9157 04bc 502d a83d 913f 70be 5b35 3f3e
00000120: 6197 673e ebbb 53bd 2c85 7fbd 81d1 323b
00000130: 08c7 3b3b eb25 a9bc 2cb1 73bb 9732 13bd
00000140: 52fd dcbc c573 793b aa39 413c 38f9 acbc
00000150: f373 95bd a0bb 22bd e09a 303e ab13 2c3e
00000160: 3177 d1bd 765d 163e 1416 d1ba b8bb c1bb
00000170: 6a42 ae3c eb4e 803c 3f43 fe3c fa0c 033c
00000180: 77bc 483b 9954 aabc 90e8 873b 1e1b ef3c
00000190: e40a 4a3d 46c3 8cbe c4f9 37be c359 053e
000001a0: c912 a63d 4d5b a13b b330 08bc c0d4 9b3c
000001b0: e6e5 03bc d2bc 2b3c 4ea7 b439 ebda f9bb
000001c0: c46e 11bb 3fae efbb 34a4 1bbd 0a73 a73d
000001d0: 6a30 f4bc 0103 c0bd 231b d4bb e816 5abc
000001e0: 6d76 d53b 4983 d33a cd18 8fbc 0cee 12bc
000001f0: 6827 2d3b fbc6 01bb 9471 5fbb e478 81bc
00000200: f5b0 793d fb78 24be a054 fcbd f61d 6d3e
00000210: 1f85 df3d daa7 17be dbd4 a03c 95c5 5dbc
00000220: 0017 1c3c 112c 703c 22a9 4d3b 2971 0a3b
00000230: 5dd2 6e3c 2940 4b3c 500d 64bc 005b f7bc
00000240: 70ac f63c 4d3d 3e3d 5b3a 38be 4788 283d
00000250: a18c 4b3e 9e1f 3c3e d262 d93c f32f cfba
00000260: cfe4 f0bc eb6f a0bc a3e1 0bbd f90b f3bc
00000270: 8b68 08bc a1c5 de3c 8ba8 86bc 1728 ef3b
00000280: f3b2 0bbe 8f81 a53c f469 d63d 19d0 0bbe
00000290: 0e92 923d 5132 c83b 1d67 c7ba eb46 34bc
000002a0: fdf2 803b 644b ddbc 12ca a1bc e7d9 273a
000002b0: a80d d73c c4a6 48bd a888 f93b 8cdc babd
000002c0: 72a1 4d3e 351c 76bd 0424 d1bb 7a15 0fbe
000002d0: f092 e33b c0b8 31bc 5e2c 8ebc 0802 3bbc
000002e0: c1d8 93bc aefd b1bc c4a9 3abc ab47 a13b
000002f0: ea8a b33b 63db 5bbd 7102 16be 6ad5 173e
00000300: d93f 0a3d ea88 023e 0ac1 5fbc 21f2 133d
00000310: 04e9 123c 2653 06bd cb27 11bd bb6b 2fbb
00000320: 87ff 803b 2d99 38bb 9f3c 29bd 5829 a93d
00000330: 947a 5b3c c8e1 08be 809d 433d 61b5 14be
00000340: d7c4 62bb 3f7a db3c 1d3d eabb 065b 9b3b
00000350: 16ce f8b9 b0a4 d13a 29a4 42bb d3b6 743c
00000360: 94af aebb 9d7e 363c 5694 423d 20fc e83c
00000370: f8e6 82be af46 75be 7a19 6e3e c708 6e3e
00000380: 0fc8 413e 7f85 89bc 70f2 13bb 0170 6abd
00000390: 4673 49bc a686 9d3c 45bc 4d3d f93d b33c
000003a0: ff18 e93d d502 1cbe fd35 a23d 2b56 3cbe
000003b0: 92f2 933d e0a5 413d c563 8c3e 4770 e43d
000003c0: 4ace 9b3b dc1c d1ba e23b 95bc b117 ccbc
000003d0: 19fd 98bc d2ad bf3a 83ca e5ba 6b41 af3b
000003e0: 78c9 45bc 5317 3a3d 14d2 55be a1ac 143e
000003f0: 097c 9c3d b230 b73d 5158 c93d e8f8 be3a
-0.012786786 -0.019772248 0.03819279 0.020750692 0.005652936 -0.0072252424 0.0036287075 0.025620284
-0.078291476 0.08080272 0.20389952 0.18156183 -0.21943483 -0.03967679 0.13714857 -0.047517326
0.07004165 0.08387253 0.052593645 -0.03344247 -0.09810406 -0.069828086 -0.0623455 0.019918073
-0.077348135 0.16421704 -0.13229981 0.29667443 0.12114164 -0.09853989 0.011017 0.0027917018
-0.00915719 0.007541646 -0.014062315 -0.019125337 -0.0036572835 0.00056886004 0.009098186 -0.051377397
0.089300446 -0.08279986 0.09316262 -0.11809979 0.21189871 -0.014908265 0.0107764965 0.006274876
0.024228098 0.0068094367 0.008423358 0.0077692214 -0.00032452395 -0.0062905373 0.02631636 0.15079096
-0.08259495 -0.0380359 0.0730877 -0.029467035 0.0043373005 0.004666834 -0.021896264 -0.026180452
-0.025072785 0.0048367465 -0.0048439163 0.013166708 -0.008077518 0.08211768 -0.23461749 0.18672697
0.2261634 -0.051692884 -0.062382862 0.0027285519 0.0028652567 -0.020647964 -0.003718446 -0.035936918
-0.026976261 0.0038063389 0.011793533 -0.02111493 -0.07297506 -0.039729714 0.1724658 0.16804378
-0.10227812 0.1468409 -0.0015952014 -0.0059122704 0.021271903 0.015662631 0.031037925 0.007998699
0.0030629912 -0.020792292 0.0041475967 0.029187735 0.049326792 -0.27492732 -0.17966372 0.13022523
0.08109052 0.004924214 -0.008312392 0.019022346 -0.0080504175 0.01048203 0.00034456927 -0.007624974
-0.0022191266 -0.007314473 -0.037998393 0.08176239 -0.029808242 -0.09375573 -0.0064729615 -0.013311125
0.0065143616 0.0016137148 -0.01746788 -0.008967888 0.0026421193 -0.001980244 -0.0034094797 -0.015804715
0.060959775 -0.16061775 -0.123208284 0.2315596 0.10914063 -0.14810124 0.019632747 -0.013535877
0.009526968 0.014658944 0.0031381329 0.0021124578 0.014576522 0.012405434 -0.01391919 -0.03019476
0.030111521 0.04644518 -0.17991011 0.04114559 0.19877864 0.18371436 0.026536379 -0.0015807137
-0.02940598 -0.019584617 -0.03415073 -0.029668795 -0.008325706 0.027193846 -0.01643779 0.0072984803
-0.13642482 0.02020338 0.10469428 -0.13653602 0.07156764 0.006109514 -0.0015213225 -0.011003236
0.0039352165 -0.027013488 -0.019749675 0.00064030144 0.026251629 -0.048987165 0.0076151676 -0.09124097
0.20081118 -0.060085494 -0.006382467 -0.13973036 0.0069450065 -0.0108472705 -0.01735514 -0.0114140585
-0.018047692 -0.02172741 -0.011393014 0.0049218736 0.0054792063 -0.05367602 -0.14649369 0.14827505
0.033752296 0.12747541 -0.013656864 0.036119584 0.008966688 -0.03279414 -0.03543834 -0.0026767093
0.0039367112 -0.0028167472 -0.04131758 0.08259839 0.013395924 -0.13367379 0.047757626 -0.14522316
-0.003460219 0.02679169 -0.0071483986 0.0047410754 -0.00047455792 0.0015994515 -0.0029699898 0.014936167
-0.005330989 0.011138585 0.047504745 0.028440535 -0.2556684 -0.23952745 0.23251906 0.23245536
0.18923973 -0.016787289 -0.0022574924 -0.05723572 -0.01229555 0.019229244 0.050228376 0.021880137
0.11381721 -0.15235455 0.07920454 -0.18392245 0.07224001 0.04727733 0.27419868 0.11154228
0.004754816 -0.0015954035 -0.01821703 -0.02491364 -0.018675374 0.0014623946 -0.0017531667 0.0053483746
-0.01207196 0.0454324 -0.2088092 0.14518978 0.07640845 0.08944835 0.09831298 0.001457003

linear_one.bias f4 [100]
00000000: a450 b23e 858b 523d 9ddd 193e e1ab b23d
00000010: dfe6 1a3e 9249 863e f822 38be fec7 cebd
00000020: 5df0 93bd 6979 953e 4fad 5bbd e7ca d6bd
00000030: a8e0 c43d 0dc9 37be b63b 873e 29bd 94be
00000040: 5e08 7d3e e8ba a1bd 94a8 dabc 19b8 92bd
00000050: 25bc e93d 86b1 97bd 549d 80bd e510 24bd
00000060: 2c38 613d 1513 b2bd 9e0a 31be 1032 9f3c
00000070: 7ebe 83bd 90a4 febd 292a ad3e 4eca 18be
00000080: e89c c9bd c353 eb3d dff9 94be 4549 393e
00000090: ed6a 59be f833 9dbd 2dfa 71bc e952 413e
000000a0: d897 5fbe 0d94 623d 144d 61be 018a 2b3e
000000b0: 3990 02be 2a16 263e 2b27 a83e 2329 aabd
000000c0: f2a7 a83c 609a 5abd 0705 98bd b7b9 6c3e
000000d0: 335f 4d3e e645 26bc a16e 81be cc2c bd3d
000000e0: 07bb e53d 1fb0 fb3d 68f7 c8bd 7e60 02bd
000000f0: 039b 993e dbf3 5bbe 98af ae3d 9ec3 94bd
00000100: 7c0c 3b3d f463 0e3e c18a 3abe e1e2 113d
00000110: 5029 bf3d 4296 a33d 1297 25be 63c8 113e
00000120: 1c12 003e 3dfe 20be 01b4 283e c275 4f3e
00000130: d50f 14bd 706c 3f3b b821 183e e972 1c3e
00000140: 4ad8 eb3d b201 053e cfd4 ae3c 3397 4dbe
00000150: c140 8a3e a76f 993e 98a9 97bd 902d 833e
00000160: 0199 82be 1c9c 353e aa42 23bb 4946 ac3a
00000170: 7c6d c13d 968b 66be 0c3d 163e 2dc9 463e
00000180: a616 a5bd 1a67 22be d38e 0f3d 612c 323d
0.3482715 0.051402587 0.15025945 0.087241895 0.15127133 0.26228005 -0.1798209 -0.10096739
-0.0722358 0.2919419 -0.053632077 -0.10487919 0.09613162 -0.17947789 0.26412743 -0.29050568
0.24710223 -0.07896978 -0.026691712 -0.0716402 0.11412839 -0.07406907 -0.06280008 -0.040055174
0.05498521 -0.08695046 -0.17289206 0.019433051 -0.06432818 -0.124337316 0.33821228 -0.14920923
-0.098443806 0.11490586 -0.29096887 0.18094356 -0.21232195 -0.07675928 -0.014769119 0.18879284
-0.21835268 0.055316973 -0.22002059 0.16751863 -0.12750329 0.16219392 0.32842383 -0.083086275
0.020587895 -0.05336988 -0.07422834 0.2311772 0.20055847 -0.010148501 -0.25279716 0.0923706
0.11217313 0.12289452 -0.09812814 -0.031830303 0.30001077 -0.21479742 0.085295856 -0.072638735
0.045666203 0.13905317 -0.18216993 0.03561676 0.093340516 0.07987644 -0.1617091 0.14236598
0.12506908 -0.15721984 0.16474916 0.20259765 -0.03614791 0.002920892 0.14856613 0.1527821
0.11515863 0.12988928 0.02134171 -0.20077209 0.27002528 0.29967996 -0.07405394 0.256207
-0.25507358 0.17735332 -0.002491156 0.0013143505 0.094447106 -0.22514185 0.14671725 0.1941268
-0.080609605 -0.15859643 0.035048317 0.043499354

linear.weight f4 [2, 100]
00000000: 60c1 d23d 6916 4cbd fdab f53c e822 18bb
00000010: 7ff1 563b 5ffe a73c b563 4bbc 3217 413b
00000020: 8c0a 9fbd 29fa 193d a831 a33b 7381 3d3d
00000030: 0c38 e33b 19fb a2bd be15 bf3d a901 29be
00000040: 6c64 6e3b 80fe 6dbc 3499 873b d0ce 8abd
00000050: f4fb 3ebb a2fb ecbb 0919 093d c092 09bc
00000060: 6cc2 8bbb aae7 ff3b 5fb0 40bc 6eb8 0a3e
00000070: 4c7b babb 0db6 783d 0514 8b3c 288b 9dbd
00000080: c1d8 a9bc cbc4 e33c 0e44 aebc 9c81 053c
00000090: 23df fd3c 6f66 42bb 7955 8c3b 9ab5 243d
000000a0: 3814 9b3c 3ed3 7e3c cb2e edbd f082 2d3c
000000b0: 5abe 9f3b 7a34 523b d8ee 4b3d 11f4 653b
000000c0: 4aac 12bd 139e 2c3c cb09 50bb 8bf7 103e
000000d0: eb01 ea3b e2e6 86bd b467 62bc adf5 8a3d
000000e0: dff1 b33b c61c 8e3d 6eb0 2e3c 1590 453d
000000f0: 9f99 6d3d 648d 40bc 96e2 f6ba c8b5 ae39
00000100: 8fca f3bc 86ee ed39 61fb 973b 7c03 253e
00000110: e0f4 4dba 7dfa 12bb 8afc c13c c594 67bd
00000120: 904b 063d 5afa 043c c859 76bc dd3d cf3d
00000130: 7951 8abc 422d 473c 062c d53b b459 2a3b
00000140: a85d ec3a fc36 92bb ec5f 8fbb 5db0 b5bb
00000150: 3aa8 cc3d bbd1 f93d 6805 deb9 1d42 c23d
00000160: 9438 dfb9 63f4 ae3d b4fb eebb 45b8 90bb
00000170: fb53 833c 10c9 183b 8097 1f3b 3cca 683b
00000180: fa8f 01bd a452 cd3c a669 3839 c91e 343d
00000190: 6221 c53d dc7a 62bd 8aab cf3c 5812 ffbb
000001a0: 78bd 6e3b 96ac 923c 8151 19bc 5bbd 333b
000001b0: 1b31 97bd 120c 063d b11c cf3b 7426 613d
000001c0: 27dc 883c 562c a2bd 40ea ea3d e147 3bbe
000001d0: 1b0a a83b 5a87 d3bb 64b9 9fba 05a7 d3bd
000001e0: 4c55 a1bb 15ac 02bc e90b 003d eaf9 32bb
000001f0: 8545 cdbb 21c1 503c be0b 78bc 0124 1b3e
00000200: c075 833b 32f4 973d fb82 a73b 25d1 adbd
00000210: aa60 d5bc 41a2 c83c 6fcc a5bc 2124 353b
00000220: 771f 6d3d 2745 8e3a 84c3 6e3c bce1 d33c
00000230: 8222 c33c bf2a fb3c 3926 8fbb aaba aa3b
00000240: 5fc3 8c3b 3e25 0ebb 6d07 233d b5b5 b9bb
00000250: 3348 5dbd 465c db3b 976e e9bb 2016 193e
00000260: a6c1 e53b f0a9 aebd 1f3e a3ba 7b53 b53d
00000270: c95d 98bb cc89 9a3d 2972 853c 0ffa be3d
00000280: df8e 743c 8bed d6bb 1dca 8d3b b5d1 2cbc
00000290: 4867 53bd cc85 f83a 32b6 9f3a 42e0 3d3e
000002a0: d87c 71b8 c742 99bc 4356 303d cd53 8ebd
000002b0: e13d 033d 5533 173c 794a f5bc d8ab de3d
000002c0: da62 dabc 40f6 623c 9612 2d3b 959b a0ba
000002d0: 4252 de3a 3e5d 6eba bb47 a9b9 49b0 ddbb
000002e0: 2b27 bf3d f7a4 28be 1b25 91bb d52e c43d
000002f0: 0d71 e0bb d7f7 ae3d 613f e1bb 2cab 55bc
00000300: c702 2b3c 3e6d 8a3c 5ccc 35bb 9f01 023b
00000310: e9df e0bc 6e93 b83c 6df4 ddba 417e 263d
0.102907896 -0.04982606 0.029989237 -0.0023214165 0.0032797751 0.020507036 -0.012413909 0.0029463288
-0.077656835 0.037592087 0.0049802847 0.04626603 0.0069341715 -0.07958049 0.09330319 -0.1650454
0.0036375774 -0.01452601 0.0041381363 -0.067777276 -0.0029141875 -0.0072321454 0.03347114 -0.008396804
-0.0042651203 0.007809599 -0.0117608 0.13546917 -0.0056909677 0.060720492 0.01697732 -0.076925576
-0.02073324 0.0278038 -0.021272685 0.008148577 0.030990189 -0.0029663106 0.00428265 0.04021225
0.01893054 0.015553294 -0.11581191 0.0105903 0.0048749866 0.0032074735 0.049788326 0.0035088102
-0.03580884 0.010535735 -0.0031744118 0.1415693 0.007141342 -0.06587006 -0.01381867 0.0678514
0.0054914798 0.06939082 0.010662181 0.04823311 0.058007833 -0.01175246 -0.0018835838 0.00033323304
-0.029759673 0.00045381876 0.004638121 0.1611461 -0.00078566186 -0.0022427135 0.02367999 -0.056538362
0.032786906 0.008116329 -0.015036054 0.10119221 -0.016884552 0.012156786 0.006505492 0.0025993409
0.0018033283 -0.004462121 -0.0043754485 -0.005544706 0.09993024 0.12198206 -0.00042347168 0.09485266
-0.00042576028 0.08542707 -0.007293189 -0.004416498 0.016031256 0.0023313202 0.0024351776 0.0035520932
-0.031631447 0.02506382 0.00017586965 0.04397467 0.09625508 -0.05529295 0.02535035 -0.007784169
0.003642885 0.017904561 -0.009357811 0.0027426097 -0.07382413 0.032726355 0.006320559 0.054968312
0.01670654 -0.07918613 0.11470461 -0.18289138 0.005128158 -0.006455344 -0.0012185988 -0.10334591
-0.0049234983 -0.007975598 0.03126136 -0.0027309605 -0.006264391 0.012741358 -0.015139518 0.15150453
0.0040118396 0.074196234 0.0051120496 -0.08487157 -0.02604707 0.024491431 -0.020239083 0.0027639943
0.057891335 0.0010854349 0.014572982 0.025864474 0.023820166 0.030660031 -0.00436857 0.0052102404
0.004295751 -0.0021689679 0.039802004 -0.005667413 -0.054023933 0.0066943495 -0.007123779 0.14949846
0.00701161 -0.08528507 -0.0012454427 0.08853813 -0.004649852 0.07545814 0.016289787 0.09325039
0.014926641 -0.006559079 0.0043270723 -0.010548045 -0.05161217 0.0018960773 0.0012185036 0.18542579
-5.7575147e-05 -0.0187086 0.043051016 -0.069495775 0.032041434 0.009228547 -0.029942738 0.1087262
-0.026658464 0.013852656 0.0026408783 -0.0012253398 0.0016961771 -0.00090928737 -0.00032287635 -0.0067653996
0.093336426 -0.16469179 -0.004429472 0.09579245 -0.006849414 0.085433654 -0.0068740104 -0.013041299
0.010437674 0.016897794 -0.0027740216 0.0019837392 -0.027450519 0.022531237 -0.0016933806 0.04064775

linear.bias f4 [2]
00000000: 527e db3d 7fda 3a3e
0.10717453 0.18247412
