HOMEWORKS/HW2/notebooks/eda/MODELS/SIMPLE LSTM/model.pt (torch, 190309 bytes, 6 tensors)

lstm.weight_ih_l0 f4 [400, 15]
00000000: 8e33 393e 9fdf 7f3f 5a05 fe3e 0002 2f3f
00000010: 13b3 8bbf 6ab8 f63e fb5b a13e 0a6e 433f
00000020: f1a6 d0bd 16da 113e b636 8c3f 9e2f b6be
00000030: 3538 04bd c845 853e 7ca1 da3e d74a b6bc
00000040: 7f37 773e a79c d43e 1ddb 93be abf7 703e
00000050: 24b7 b33e 4829 dd3e dfb0 863f fe03 e43d
00000060: 1693 a53d 8fe6 60be ddaa fd3d 44d1 7dbe
00000070: b7b8 77be ebac 273d 79f5 bebd 0992 7abc
00000080: 56fa 8e3c da27 93bb 2c39 4b3e fedd 993d
00000090: 2f6c 28bd 82dd 0f3d 0737 873c 41bf 3b3e
000000a0: 0d1d dc3d bc3f 8c3e fee0 5b3e e83b 883e
000000b0: bef8 a83e 0462 babd c895 c8bf 508f ba3e
000000c0: c75f 7ebe d56a 493f 601f 073f 5004 a5be
000000d0: ccec 243f 927a 8d3e f36a 34be 14ba edbd
000000e0: 683b 543e eb45 cc3c 1890 8a3d c9a9 453e
000000f0: 87be e7be fba4 31be 34fc 1ebe f292 b53e
00000100: ec34 a0be c2dd afbe fa65 7f3e 7246 703e
00000110: d3d3 283e 98db a53e 9020 833e f33d 423e
00000120: 5ec3 a23e ec4a a73e fa44 fd3e d01b 00bf
00000130: 05a4 1fbf f565 a5be 259b dbbe 9a95 18be
00000140: 3946 f83c 46cd be3d c2b4 24be e949 c53e
00000150: f5af 633e 5ebc 543e 752a 9f3e e41f 333e
00000160: 39f0 ef3e be33 c33e ac5d 50be 53e9 76be
00000170: f875 473e 6cb4 95bf acff 0540 c37d 20bd
00000180: 507e 18be f8b3 c43e af90 703e 2929 6a3e
00000190: 1448 c03d 46c5 643e f022 863d f5af 5a3e
000001a0: ba05 463e 2704 213e 8227 e7be ecea 0e3f
000001b0: a49f 18bf 64b9 bbbe e27d 153f 93a1 ff3e
000001c0: 4555 733d abfc 883b 6f44 2b3f 63aa 833f
000001d0: 0c71 fdbd 594f 43be 8756 d83e c79f 473e
000001e0: 9c7c 06be f0ff 38be 4697 57be d6b1 3ebb
000001f0: cb00 4fbe ce64 adbe e43d 993e 7ed6 253e
00000200: b927 423f 2413 8dbd 9575 b03e 5056 b03e
00000210: 2118 383e ff04 953e a36f 0e3f b67d d1bd
00000220: 9546 b9bd 50ad 1a3c 1029 ed3d 7819 303d
00000230: 7023 543f 6683 0d3f 977a 0dbe 3ed2 f43b
00000240: 1600 b33e e93f 173e cbaa 023f bd80 b13e
00000250: 884d 243f 22eb f13e 7249 783e 0e8e efbd
00000260: e62c e03d b558 fdbd 007b 783e c484 cf3f
00000270: 2a0d 0f40 a40d 4e3f fb76 13bf 1045 613c
00000280: fa35 4f3d 7f26 10be 95f1 95bd f6cf a8bd
00000290: 27b3 633d ee24 c73c ea4c 29bf 60fb 0dbe
000002a0: 7d7f 903f 4e76 f4bf 3d6b 82bf 03fb 09bf
000002b0: 5168 9cbe 0246 0b3e efe0 653e 5373 b83e
000002c0: f543 9a3e 3fe6 cd3e 89a2 d73e c7a5 fd3e
000002d0: 1e6a 05bf 16db 36be 6de3 12be 8c21 f73d
000002e0: 4abc 28be ca53 2abe 1427 503e 77c8 80bd
000002f0: 4287 593e 021e 703e 3ed8 043f ab5a 0c3e
00000300: 8a03 cf3e c0aa d63e 8edd aa3e 49df c73e
00000310: f924 753e fc84 bdbd b63c 21be ab5f a7c0
00000320: 6b67 65bf b014 f73e b652 283e c7a7 293e
00000330: 63cd 2f3d d2bc 0b3c fc4a a83d ceae 0e3e
00000340: dce0 f4bc 146b 05bd d3a6 acbe f15d 64be
00000350: 2ef0 85be 341b 123e 519a d0be e736 2b3e
00000360: 3e3d 733c f0e8 963e 59c1 a13e d333 823e
00000370: 9a87 b93e b1ef a73e 6447 a53e 241f cf3e
00000380: 948a d33e d8a2 0abf ec53 6abe 9844 e43e
00000390: f437 5cbf 4046 23be 13b9 733e 5497 153f
000003a0: 4c25 d53e a69a 623e f9c4 413f 2cc7 cd3c
000003b0: 1bf3 473e 07c6 9a3e c849 963d 841f e33e
000003c0: 125b e4be 797e 643d 7181 90bc bd32 1fbe
000003d0: 8ca4 293d 2ae6 073e c4d3 043e dfc7 5b3c
000003e0: 916b e93d 8f7f 373e 54e3 883e 4379 863e
000003f0: f519 273e 07df 3e3e 8e98 ac3e fa85 d8be
0.18086073 0.99950594 0.49613458 0.68362427 -1.0914024 0.48187572 0.31515488 0.7633978
-0.101880915 0.1424335 1.0954196 -0.35583204 -0.032280166 0.260298 0.42701328 -0.022252483
0.24142264 0.41525766 -0.28878108 0.23531978 0.35100663 0.43195558 1.0522727 0.11133574
0.08084695 -0.21962951 0.12386105 -0.2478686 -0.24191557 0.04093639 -0.09324164 -0.015293607
0.017453354 -0.0044908347 0.19846028 0.07513045 -0.041118797 0.035123356 0.016505731 0.18334676
0.107477285 0.27392375 0.21472546 0.26608205 0.33002275 -0.09100726 -1.567071 0.36437464
-0.24841224 0.7867864 0.5278225 -0.32229853 0.64423823 0.27632576 -0.17618923 -0.11607757
0.20725787 0.024935683 0.06765765 0.19303049 -0.45262548 -0.17348091 -0.15525895 0.35463673
-0.31290376 -0.34348875 0.24941245 0.23464373 0.16487055 0.323941 0.2561078 0.18968944
0.31789678 0.32674348 0.49466687 -0.5004244 -0.6235965 -0.3230435 -0.42891803 -0.14900818
0.030306922 0.093164966 -0.16084579 0.3853295 0.22235091 0.20774981 0.3108708 0.17492634
0.46862963 0.38125414 -0.20348233 -0.24112444 0.19478595 -1.1695685 2.09373 -0.039182436
-0.14891934 0.38418555 0.23492692 0.22867264 0.09388748 0.22340879 0.065496325 0.21356185
0.19338122 0.1572424 -0.4514733 0.5582721 -0.5961859 -0.3666488 0.58395207 0.4992796
0.05940749 0.004180511 0.66901296 1.0286373 -0.123750776 -0.19073237 0.42253515 0.19494544
-0.13133472 -0.18066382 -0.210538 -0.0029097698 -0.20215146 -0.3386597 0.2993003 0.16195104
0.7584186 -0.068884164 0.34464708 0.3444085 0.17977954 0.29105374 0.55639094 -0.102290556
-0.090466656 0.009440735 0.11580098 0.04299304 0.82866573 0.55278623 -0.13816296 0.007471352
0.34961003 0.14770474 0.5104186 0.34668532 0.64180803 0.47249705 0.24246767 -0.11697017
0.10946064 -0.12370435 0.24265671 1.6212392 2.2351785 0.80489564 -0.57603425 0.013749376
0.050588585 -0.14077185 -0.07321469 -0.082427904 0.055590775 0.024309602 -0.66132987 -0.13865423
1.1288906 -1.9098604 -1.0188977 -0.5389864 -0.30548337 0.13600925 0.22449087 0.36025485
0.30129972 0.40214726 0.42116192 0.4954054 -0.52115047 -0.17857012 -0.14344569 0.120669454
-0.16478077 -0.16633525 0.20327407 -0.06288236 0.21243003 0.23448947 0.5189246 0.13706462
0.40432388 0.41927147 0.33372158 0.3903754 0.23939885 -0.092538804 -0.15745816 -5.230428
-0.8961093 0.4825797 0.16437802 0.16567908 0.04292048 0.008528905 0.08217427 0.1393387
-0.029892378 -0.03257282 -0.33721027 -0.22301461 -0.26159805 0.1426819 -0.40742734 0.16720162
0.014846144 0.29474592 0.31592825 0.25430164 0.36236268 0.32800058 0.3228103 0.40453446
0.41316664 -0.5415473 -0.22883576 0.44583583 -0.8602288 -0.15944767 0.23801069 0.58434033
0.41630018 0.22129306 0.7569118 0.025119387 0.19526331 0.30229208 0.073382914 0.44359982
-0.4460073 0.055784676 -0.017639847 -0.15546699 0.04141669 0.13271394 0.12971407 0.013414352
0.1139747 0.17919753 0.26735938 0.2626439 0.16318496 0.18639766 0.3371014 -0.42289716

lstm.weight_hh_l0 f4 [400, 100]
00000000: 7d99 cc3d 4cfa 57bd ce36 db3d 01f2 d1bb
00000010: 89d2 413d 6e1a 0a3e 2165 92bc 22a7 ebbc
00000020: ba52 94be f3eb 6e3e 9a99 ac3d a9f0 00bd
00000030: 5efb e8be 8040 b1bd 2276 993d ea14 243e
00000040: 9077 523e 6aac 203e 03eb b53e c684 e9bb
00000050: 7e50 afbe 3da2 3bbe 345a 893e 2945 b9bd
00000060: 7ef4 a23e caa2 aabe 42c9 4dbe 4933 573e
00000070: 59ce 293e 6536 7dbe 75e0 23be c231 203e
00000080: 5dd6 34be dee3 253e affe a6be e511 153e
00000090: bd69 4fbd e041 393e 5b49 233e d0f4 583e
000000a0: a168 bb3d 613e 943e 40ad b0bd 78d7 60be
000000b0: a3bd a2bd 62f5 fe3c a33a 8b3d f8eb dbbc
000000c0: 18a1 39be 7897 833e d2ca 60be 9adc 6d3e
000000d0: fc7f 89be 8395 0cbc d471 943d 878e eb3e
000000e0: ad6a 89be 92c6 09bd 120b 203e 4317 ccbe
000000f0: 4369 80be 50b0 5ebe 4021 943b a29c 00be
00000100: e51f 733e a8ce fe3d 2d26 6d3e c913 273e
00000110: 8970 ed3d 543f 993d 7e92 e43d 77cc 02be
00000120: 2d61 aa3c 24d8 0abd 2d95 b53d a9eb 973e
00000130: 40fa 2abc dff3 a13e e615 ab3e 7df8 ab3e
00000140: 3e9a 773e ff57 9e3d 9391 b9bd 9cd9 82be
00000150: d754 c03e e159 dc3d 16c1 0d3d 77f4 2d3d
00000160: ca5e d43e 662f 17be 7caa 993e ab0b 103e
00000170: 0743 18bd fee1 993e bd62 9cbd 7eb0 be3c
00000180: 73d1 103d 86ea bf3d 0328 9d3e 6f7d 8dbc
00000190: bbfd dc3d ad56 163e 7ca8 35be f927 91bc
000001a0: fc42 d13d 19b0 fcbd ecee a0bd 5b19 cd3d
000001b0: 9d1f 7a3d a40b 863e 9851 083e ba1d 933e
000001c0: 3530 1d3e 4522 293d f8ff 07be 47f0 873c
000001d0: 10d5 40be efc6 3abe ece9 0bbe 5394 d2bd
000001e0: 2e4e 373e da2f 893e f88e 53be bb3c 0a3e
000001f0: b061 67be 3709 363b af4e 02be 1c60 b2bb
00000200: 4997 d8bd 385c 313e 5269 4fbd 2042 313e
00000210: 2983 4a3e 07c2 33be 6a97 633e 36f9 2e3d
00000220: 0451 2f3e 05df 01bd ee41 69bd 0b7d a8be
00000230: e1cf ad3e 402e 83bd 4e51 133e 59cb 13be
00000240: c444 193d 9640 00be 1544 603e c5f4 19be
00000250: e7ef 28bd 2850 14be 25ec 4f3e d549 34be
00000260: 3a0f d6bb a7ba 903e 2456 c5be d23f 203e
00000270: 26a4 4a3e 8946 aebd 700e 053d a723 743d
00000280: e8e2 2a3e c80f 9d3c a5a2 053d a5c8 a9bd
00000290: 7a25 96bd 476c 5a3d 036a 2fbe 64c8 9dbd
000002a0: 889d 15be 6bc8 0c3d eafb 66be a79f cdbc
000002b0: 6456 853c a23e 343c da96 343e 3c32 d4ba
000002c0: 04f6 e2b8 9499 efbc df69 ed3b 9d02 953e
000002d0: 223a 3f3e 7d5f e33d c00f 4cbe 2a49 833e
000002e0: 2d90 9f3d e8dc 5bbd 44d7 7e3e e5c2 64be
000002f0: c543 85bc 5371 a4be aba0 1e3e 759e 62bd
00000300: 5661 8fbd 3400 3fbe 6f31 12be f991 643d
00000310: 2daf 2ebe b13b ce3d fc9a 2dbe a425 3bbd
00000320: c05d 9fbd 81f7 dcbc edbc 863e 1d88 88bd
00000330: 6418 b43d 16ac a93e b326 603d 1e5c 88be
00000340: 72b5 05be 2fe8 2a3e a3fa ffbc ab7c 80be
00000350: 1f8f 11be 41c9 2fbd 2262 173d ca84 913e
00000360: 6131 d33e d218 dc3e 50cc 17be 7cdf f83c
00000370: 4424 17bf 2103 cabe 8820 1f3e 0128 5ebe
00000380: 6535 103f 9b9b 23be 1f9f a9be d504 3a3e
00000390: e0c6 58b9 a3e6 2dbe b35e 65be 55e3 a2bd
000003a0: 9971 95be 3587 dd3d 221d 01bf 4133 e13d
000003b0: 5f9d e6be 8ddd 233e 19f7 27be 0613 763d
000003c0: dca1 debd 063e ca3e 796e c3be f671 24be
000003d0: 911c 9bbe c79a 223e 28c2 783c d5c4 17bd
000003e0: fcb0 b23d 45d6 413e 9530 aabc d54d 2cbc
000003f0: a65f 08be 29e0 b4be b7ef b43e aea8 1ebb
0.09990213 -0.052728936 0.107038125 -0.006407023 0.047319923 0.13486645 -0.017870488 -0.028766219
-0.28969365 0.23332195 0.08427735 -0.03147951 -0.45504278 -0.086548805 0.07493235 0.16023603
0.20553422 0.15690771 0.35530862 -0.0071264235 -0.34241098 -0.18323608 0.26826632 -0.090463944
0.31827158 -0.33327323 -0.20096305 0.21015657 0.16582622 -0.24727781 -0.16003592 0.15643981
-0.17659898 0.16200206 -0.32616183 0.14557607 -0.05063795 0.18091536 0.15945952 0.21187139
0.09150816 0.2895384 -0.08626795 -0.21957195 -0.079463266 0.031122867 0.067982934 -0.026845917
-0.18127859 0.257015 -0.2195237 0.23228684 -0.26855457 -0.008580568 0.072482735 0.46007177
-0.268392 -0.033636637 0.15629223 -0.39861497 -0.25080308 -0.21746945 0.0045205653 -0.1255975
0.23742636 0.1244176 0.23159094 0.16316141 0.1159373 0.07482782 0.11160754 -0.1277331
0.02079829 -0.033897534 0.08866344 0.29671982 -0.010435641 0.3163137 0.33415145 0.3358802
0.24179932 0.07731628 -0.09060969 -0.25556648 0.37564728 0.107593305 0.03460797 0.042469468
0.41478568 -0.14764175 0.30012882 0.14066951 -0.037173297 0.3005523 -0.0763602 0.023277517
0.035355996 0.09370904 0.3069459 -0.017271725 0.10790583 0.14681502 -0.17740053 -0.017719256
0.102178544 -0.123382755 -0.07858071 0.10014602 0.061065305 0.26180756 0.13312376 0.28733617
0.15350421 0.041292448 -0.13281238 0.016594065 -0.18831277 -0.1823995 -0.13663453 -0.10282197
0.17900917 0.2679432 -0.20660007 0.1349973 -0.22595859 0.0027776489 -0.12725328 -0.005443586
-0.1057573 0.17320335 -0.05063755 0.17310381 0.19776596 -0.17554484 0.22225729 0.042718135
0.17120749 -0.03170683 -0.05694764 -0.329079 0.33947662 -0.06405306 0.14386484 -0.1443304
0.037419096 -0.12524638 0.21900971 -0.15034778 -0.041244414 -0.14483702 0.20304926 -0.1760629
-0.006532577 0.28267404 -0.38542283 0.15649346 0.1978918 -0.08509547 0.03248447 0.059604313
0.1668812 0.019172564 0.032625813 -0.08290223 -0.07331367 0.053325918 -0.17130284 -0.07704237
-0.14610875 0.03437082 -0.22557035 -0.025100542 0.016276546 0.011001261 0.1763567 -0.0016189287
-0.00010822344 -0.029248036 0.007245287 0.29103556 0.1867452 0.11102197 -0.19927883 0.25641757
0.07791171 -0.05367747 0.24886805 -0.22339971 -0.016267667 -0.3211771 0.15490977 -0.055326898
-0.07000987 -0.18652421 -0.1427667 0.055803273 -0.17059012 0.10069979 -0.16953653 -0.045690194
-0.07781553 -0.026973488 0.26316014 -0.066665865 0.08793715 0.33139104 0.054724406 -0.2663278
-0.13057497 0.16690134 -0.031247443 -0.25095114 -0.14214753 -0.04291654 0.03695882 0.28421623
0.4124861 0.42987686 -0.14824033 0.030380003 -0.5903971 -0.39455512 0.15539753 -0.21694948
0.56331474 -0.15977328 -0.33129212 0.18165906 -0.00020673452 -0.16982512 -0.22399406 -0.079535164
-0.2918823 0.10816804 -0.5043508 0.10996104 -0.4504194 0.16002484 -0.16402854 0.060076736
-0.10870716 0.39500445 -0.3817022 -0.16059098 -0.30295232 0.15879355 0.015183009 -0.037052948
0.08725163 0.18929394 -0.020775119 -0.0105166035 -0.13317737 -0.3532727 0.35339138 -0.0024209428

lstm.bias_ih_l0 f4 [400]
00000000: e9a5 a2be 9e64 b33e 3300 a5be 2384 5bbe
00000010: 107c 04bf 2aa0 09bf 48f9 58be 12ad 50be
00000020: 1eb5 b8be d54d dfbe 306f 133d 4a71 ffbe
00000030: d8fb a1be c6df fcbd ec17 ffbe 3713 c1be
00000040: d08b 74be 5ce3 9cbe 132b 96be 8bcc 57bd
00000050: 8fa9 e8bd 4042 ecbe baf5 f2be 4331 0abf
00000060: ed2b 863d fc57 d8be 9622 61be 7dbc 3abf
00000070: 9f5e f6be d538 1fbe 4e59 0ebf 7c66 633c
00000080: 01f3 b9be 8bdf d0be 0d21 08be 35f3 7cbe
00000090: 3723 84bc fecb dabe e774 30be a6f4 063e
000000a0: d867 9cbe 80f2 c6be 9a6b adbe 064b 06be
000000b0: 54fb e2bd acfe ea3b a8f9 04be 2060 1cbe
000000c0: bd8f 96be 780d aebe 021c 43be 31d1 2abe
000000d0: fd5a 50be 73da 933c 3aa9 05bf 8006 b2be
000000e0: b2f4 12be d019 20be 604f d9bd 1ac2 56be
000000f0: 737b da3e a1bb ddbe cfa9 dfbd 27e1 87be
00000100: cff0 08bf 228c 65be 1b13 d3be 6c5b 29be
00000110: 7906 253e 49fd 9abd 010d 3e3e 0439 19be
00000120: 7f0c 19bf 436a 903d 1ab6 ebbe e9b9 1bbf
00000130: aa8a d3bd c6f5 14bf 87ab e1be 0f70 48be
00000140: ce49 75be b55e 3b3e a1bf 8d3d 646a a6be
00000150: b222 0ebf 5eb1 72be 236d 00be 810a 71be
00000160: 0142 ccbe 354f aebe 9526 eebe a35f 15bf
00000170: 48c6 c8be e4c8 c53e 8743 69be 4164 583b
00000180: d4b1 cbbe 2566 b7be d72e 13bf 01c9 313d
00000190: 05fb 99be 0015 f0be 61ee 21be 5dbb efbe
000001a0: d6e3 94be f3b9 3ebe c409 afbe 0d7b a9be
000001b0: ff3f b2be 8c00 39be e997 d9be 6554 d3be
000001c0: 94dd 48be 6463 61be cf51 59be 3dff 43bd
000001d0: d46c 94be 777f d2be 6f97 83be 3ab3 b2be
000001e0: fea9 93be f2ea 81be cb94 28be efc6 75be
000001f0: efc3 b2be 6ca0 84be e635 31be bdd4 6dbe
00000200: 9187 3cbe 0f2c 92be aef4 2fbe d864 f4be
00000210: 22dd 93be 021a 75be bbc2 25be 70ff 73be
00000220: 88e4 43be 0f07 9fbe 38e5 7cbe 77d7 6ebe
00000230: b590 96be 68c0 97be b143 5bbe a593 40be
00000240: d61e 50be c7e4 acbe f30a 91be abf0 b9be
00000250: f7bb a5be d394 a8be e105 9fbe ed38 82be
00000260: 9c3c 86be c1fb 65be 7a2d 5abe e0e4 25be
00000270: f3a7 babe dabc 82be cc1b 9abe 5905 77be
00000280: a6d5 c93e dce6 3ebe 4550 66be ae5f 54be
00000290: 224c 4ebe 9c2b 86bd 3c58 80be 6a1b 8ebe
000002a0: f042 e6be e255 91be 0749 afbe 13e7 a6be
000002b0: 8633 90be b8f3 e9be 1a71 5fbe d67c 5ebe
000002c0: 4ab0 72be ff5e 42be bab0 35be f5ce d4be
000002d0: 07a9 1ebe 8978 9bbe d896 b2be a968 48be
000002e0: 3dec 75be 9d06 b3be 2770 b7be e5ae 3cbe
000002f0: 2798 84be 9c77 dbbe 750b 82be e5e2 6fbe
00000300: 51c8 56be b000 1ebe 0905 b3be e88f 92be
00000310: f987 b4be f5e4 afbe f28d 55be 9efb afbe
00000320: 5e69 233e a0b5 8cbd c428 0ebe 6d04 72be
00000330: 8277 083e 95a2 47bc 9874 843e 4e20 013e
00000340: 06cd f23d bf5a aebd fb88 1d3e 5322 6a3e
00000350: fd2a a43e 7e88 d2bd e678 0bbe 90f5 b3bc
00000360: 89b2 03be cc91 583e a5f3 4abe 02e1 583c
00000370: a7dc 403e f40b 913a d7ee 55be 6328 6e3c
00000380: 3c90 b6be 6d52 173e 681e e2bd fd1d 6a3d
00000390: 561c 20bc a729 6f3e 08f9 20bd bec9 2fbe
000003a0: 45c9 223e c084 23be 1be3 4c3e 7fa1 32bd
000003b0: cad4 ad3d 8e65 983e 9701 213e 4536 b0be
000003c0: a4ff ef3d 35aa a0bd 30ca 8c3d 0626 4a3e
000003d0: 745b 7f3e 7c67 94bc 7778 4dbe dfa4 6abe
000003e0: c552 283e cd9a 3dbe 2452 933d 4882 d4bd
000003f0: dddd 8b3e f861 7f3e dac6 1ebd 3dfd 5abe
-0.31767204 0.35037702 -0.32226714 -0.21437125 -0.51751804 -0.53760016 -0.21188843 -0.20378521
-0.3607568 -0.4361407 0.03599471 -0.4989112 -0.31637454 -0.12347369 -0.49822938 -0.37709972
-0.23881459 -0.3064221 -0.29329738 -0.0526853 -0.11360466 -0.46144295 -0.474531 -0.5398142
0.06551347 -0.42254627 -0.2198585 -0.7294386 -0.48119065 -0.15549023 -0.5560502 0.013879415
-0.3631821 -0.4079555 -0.13293858 -0.24702151 -0.016130073 -0.4273376 -0.17232095 0.13179263
-0.30547976 -0.38856888 -0.33871156 -0.13114557 -0.11083093 0.0071714725 -0.12985861 -0.15271044
-0.2940654 -0.3399465 -0.19053653 -0.16681363 -0.2034721 0.0180485 -0.52211344 -0.34770584
-0.14351156 -0.15634847 -0.10610843 -0.20972481 0.4267231 -0.43307212 -0.1092106 -0.26538965
-0.53492445 -0.22416738 -0.41225514 -0.16538781 0.1611575 -0.075678416 0.18559648 -0.14963156
-0.5978469 0.07051518 -0.4603737 -0.6083055 -0.103291824 -0.5818752 -0.44076177 -0.19573997
-0.23953936 0.18297847 0.06921316 -0.32503045 -0.5552169 -0.23700473 -0.12541632 -0.23539163
-0.39894107 -0.34044805 -0.4651381 -0.58349055 -0.39213777 0.3862983 -0.22779666 0.003301874
-0.3978411 -0.35820118 -0.57493347 0.043404583 -0.30074325 -0.46891022 -0.1581359 -0.46822634
-0.29080075 -0.18625621 -0.34187138 -0.33101693 -0.3481445 -0.18066615 -0.4249871 -0.41275325
-0.19615775 -0.22010571 -0.21222614 -0.047850836 -0.2898928 -0.41112873 -0.25701472 -0.34902364
-0.2884063 -0.25374562 -0.1646301 -0.24001668 -0.3491511 -0.25903642 -0.17305717 -0.23225684
-0.1841109 -0.2854924 -0.17183182 -0.47733188 -0.28879648 -0.23935702 -0.16187565 -0.2382791
-0.19130147 -0.31060073 -0.24696815 -0.23324381 -0.29407278 -0.29638982 -0.21412541 -0.18806322
-0.20324263 -0.33768293 -0.28328666 -0.36316428 -0.32369968 -0.32926044 -0.31059173 -0.25434056
-0.26218116 -0.22459318 -0.2130641 -0.1620059 -0.3645626 -0.25534707 -0.30099332 -0.24123134
0.39420813 -0.18642753 -0.22491558 -0.20739624 -0.2014623 -0.065512866 -0.25067317 -0.2775529
-0.44972944 -0.28385836 -0.34235403 -0.3259817 -0.2816431 -0.45693755 -0.21820489 -0.21727309
-0.23700061 -0.1898155 -0.17743197 -0.41564146 -0.15494166 -0.303654 -0.3488071 -0.19571175
-0.24015899 -0.34965983 -0.35827753 -0.18426092 -0.25897333 -0.42864692 -0.25399366 -0.23426397
-0.20974852 -0.1542995 -0.3496478 -0.28625417 -0.3525999 -0.34354368 -0.20854929 -0.34371656
0.15958163 -0.0687058 -0.13882738 -0.23634501 0.13326839 -0.012184759 0.25870204 0.1260998
0.11855511 -0.08513402 0.15384285 0.22864656 0.32064047 -0.1027994 -0.13620338 -0.02196768
-0.12861075 0.21149367 -0.19819506 0.01323724 0.18834172 0.0011066184 -0.20891891 0.014535996
-0.35656917 0.14777537 -0.11040956 0.057157505 -0.009772381 0.23355733 -0.039299995 -0.17166802
0.1589709 -0.15968609 0.20008509 -0.043611046 0.08487852 0.2976498 0.15723263 -0.34416404
0.117186815 -0.078449644 0.06874502 0.19741067 0.2493723 -0.018115751 -0.20065485 -0.22914456
0.16437824 -0.18516083 0.071934015 -0.10376412 0.27317706 0.24939716 -0.03876386 -0.21385665

lstm.bias_hh_l0 f4 [400]
00000000: 5c1c 5fbe e224 6e3e b385 b4be 151c 77be
00000010: ecf1 11bf 2a95 02bf f081 93bd 1c9d 47be
00000020: 0d9a d1be a65b e0be cd67 6e3d 5c0c aebe
00000030: f745 d8be f77b 86bd 2e12 18bf a1c0 e5be
00000040: e7ed 8ebe 128a a8be 2b57 33be fa54 94bd
00000050: 2b11 79be 646d f2be c628 ecbe 4c6e cdbe
00000060: 10be 1a3d f23a f8be 616f 68be 2982 24bf
00000070: 946c 02bf 18a0 33be 0465 1cbf dc23 9bbd
00000080: 7816 c2be fba8 03bf efaa 30be 9fba 96be
00000090: e1b7 ef3d b835 f7be fdfa 32be d36b c43d
000000a0: f330 8fbe a7e7 cdbe f880 b9be cde2 25be
000000b0: 62b0 07be 02f0 163c 8dc5 c7bd 3e91 3cbe
000000c0: 378b eabd 39d6 9bbe 2e86 2cbe b389 98be
000000d0: 24bf 87bd 556b 613d ff91 debe 9032 ecbe
000000e0: fa91 15be d5a4 dfbb 5128 0dbe 579d c1be
000000f0: 3824 f03e e6e9 d3be c68a 85be 4949 81be
00000100: 8d9f 18bf 6df4 d3bd 240e e4be dcc1 93be
00000110: 94da d33d b0fb 02bd 672f 543e eda7 84be
00000120: 1961 10bf 2a6a 2a3d c0d0 d9be 88b2 38bf
00000130: b144 43be cc5b 18bf 2552 d4be 2fa0 17be
00000140: 5a88 3cbe f9c1 683e baaa c53d 71d5 c4be
00000150: b761 e4be 936d 72be e46f 1dbe fbe9 89be
00000160: 5fa0 a6be 7183 95be b54d e5be bb74 e0be
00000170: 5fb7 8cbe b0a3 073f 2380 90bd f0f3 73bd
00000180: 548d debe 2715 9abe e385 08bf 8bd0 b33d
00000190: 7703 95be 227d cfbe fa6a 9bbe 71d3 c0be
000001a0: 2ba5 6cbe 5255 4dbe 05bc 93be 1cd2 d3be
000001b0: 3b41 5abe 8991 9abe 3bb5 afbe 04f0 b2be
000001c0: 3f5d 49be 0043 92be 7c6d 82be 3de4 4cbd
000001d0: a727 f7bd b4d5 d3be 3c5a 8dbe 863e 9cbe
000001e0: dba1 c1be eeec a4be 3184 a3bd 01b2 1bbe
000001f0: 8191 8bbe e62a 6fbe 061f 5cbe 8856 70be
00000200: 942a 4bbe 277c a3be 5210 1fbe e643 9fbe
00000210: 130c 88be 194e 4abe 0444 65be 9566 94be
00000220: 6b4d 49be fd2a 42be 0913 8abe 8165 43be
00000230: 6e71 e8be 743d 62be 9c13 2ebe 25bb b2be
00000240: 949d 6ebe 1fc4 9fbe 1a9d c4be 9ee9 9ebe
00000250: a73b e5be ed0f 78be d10f 47be 6545 82be
00000260: 9951 b3be 9615 89be cb4a 7fbe e208 38be
00000270: 5c8a a5be 8b53 4dbe cb09 c9be a1f8 46be
00000280: 124d fe3e 88d8 babe 2d31 abbe 704b bbbe
00000290: 018d 15be 3181 2cbe afaa 83be 2672 a9be
000002a0: 6573 f4be 2f83 6abe 7f63 74be fefb b8be
000002b0: 8f2e 33be 02fd c0be 356f 74be 7b83 a1be
000002c0: e2a1 5dbe 8fce 8cbe 79e2 6fbe 4796 a8be
000002d0: ca97 78be 19c8 b9be fe58 e7be 7db2 4bbe
000002e0: 6f75 50be cea0 debe 8531 99be 07d5 8bbd
000002f0: bcf3 90be efd2 aebe 3d0a 75be 2df0 2fbe
00000300: 4f56 80be e7d4 f0bd c5d2 a1be bc35 93be
00000310: 5e58 9bbe 8633 a7be 66fc 38be 581a a3be
00000320: baa5 2c3d 6474 13be 90d2 39be 10fa 56bd
00000330: f94a cc3d b8cc aabd 24c6 683e 7f76 7c3e
00000340: c005 363e 31fb 80be 1d74 033d af71 843e
00000350: ff13 1a3e 5053 47be 8d73 653d 4de1 72bd
00000360: 1e0a 0dbe 8834 2a3e c45f aebe da58 a03d
00000370: 2804 133e 892e 033e 9e2e e2bd e525 ae3c
00000380: a954 93be 7ea0 133e 4ac7 34be b0fe 3bbd
00000390: 562a af3c cc70 593e 28b3 d23d 4b2e 02be
000003a0: 0db4 373e 5805 74be 15c0 333e 862b 06be
000003b0: 3b37 a83d 320f 673e 0e06 a73d 5087 72be
000003c0: cbb7 e83d 9bf6 49be 21cb 923d 2c52 bf3d
000003d0: f59f 0e3e dd0d 9ebd acba 22be 5713 dcbd
000003e0: 4f09 813e 0c9a 09be f4e3 6abd fd6f 0dbe
000003f0: e7af a43e e9a4 563e cfd5 33be 6e0b 10be
-0.21788162 0.23256257 -0.35258254 -0.24131806 -0.5700977 -0.51008856 -0.07202518 -0.19493526
-0.40937844 -0.43819922 0.05820446 -0.33993804 -0.4224088 -0.06566613 -0.5940274 -0.44873527
-0.2791588 -0.3291784 -0.1751372 -0.072427705 -0.24322955 -0.47349083 -0.46124858 -0.40123212
0.037778914 -0.48482472 -0.22698738 -0.6426111 -0.5094693 -0.1754154 -0.6109164 -0.07575199
-0.37907767 -0.5142972 -0.17252706 -0.29439256 0.11704994 -0.48283172 -0.17478557 0.09590878
-0.27967033 -0.402158 -0.36231208 -0.16199799 -0.13250878 0.009212496 -0.09754477 -0.1841478
-0.114523344 -0.30436876 -0.1684806 -0.29792556 -0.06628254 0.055034 -0.4347076 -0.46132326
-0.14606467 -0.0068250694 -0.1378491 -0.37815353 0.46902633 -0.41389388 -0.26082438 -0.25251225
-0.59618455 -0.10349355 -0.44542038 -0.2885884 0.10344425 -0.03197831 0.20721208 -0.25909367
-0.5639816 0.041605152 -0.42542076 -0.7214742 -0.19069172 -0.5951507 -0.4146892 -0.14807199
-0.18411389 0.22730245 0.09651704 -0.38444093 -0.446058 -0.23674612 -0.15374714 -0.26936325
-0.32544228 -0.29201844 -0.44785848 -0.43839058 -0.2748365 0.5298414 -0.0705569 -0.05955881
-0.434672 -0.30094263 -0.53329295 0.08780011 -0.29104206 -0.40525156 -0.30355054 -0.37661317
-0.23109882 -0.20052078 -0.28854385 -0.41371238 -0.21313946 -0.3018916 -0.34317955 -0.34948742
-0.19664477 -0.28566742 -0.25474155 -0.050022352 -0.1206811 -0.4137398 -0.27607906 -0.30516452
-0.37818798 -0.32212013 -0.07984198 -0.15204622 -0.27259448 -0.23356208 -0.2149621 -0.23470509
-0.19840461 -0.31930658 -0.1553357 -0.3110649 -0.26571712 -0.19756354 -0.22389227 -0.28984514
-0.19658439 -0.18961711 -0.26967648 -0.1908169 -0.4539904 -0.22093755 -0.16999668 -0.34908405
-0.23302299 -0.31204316 -0.3840111 -0.3103761 -0.44772074 -0.24224825 -0.19439627 -0.2544357
-0.35023192 -0.2677428 -0.24930875 -0.17972139 -0.32332122 -0.200514 -0.39265284 -0.19430782
0.49668175 -0.36493325 -0.33435956 -0.36580992 -0.1460457 -0.16846158 -0.2571616 -0.330949
-0.4774429 -0.22901605 -0.2386608 -0.36129755 -0.1749823 -0.3769303 -0.23870547 -0.31545624
-0.21643785 -0.27501342 -0.23426236 -0.32927153 -0.24276653 -0.36285475 -0.45185083 -0.19892307
-0.20357297 -0.4348206 -0.29920593 -0.06827741 -0.28310955 -0.34145305 -0.23929687 -0.17181464
-0.25065848 -0.11759358 -0.31606117 -0.28751934 -0.30340856 -0.32656497 -0.18065032 -0.31856036
0.042150237 -0.14399868 -0.1814673 -0.052484572 0.099752374 -0.08339828 0.22731835 0.24654578
0.17775631 -0.25191644 0.032093156 0.25867984 0.1504669 -0.19465375 0.0560184 -0.059296895
-0.1377339 0.16621602 -0.34057438 0.07829447 0.14357054 0.1281072 -0.11044048 0.021258304
-0.28775528 0.14416692 -0.17654148 -0.045897186 0.021382492 0.21234435 0.102880776 -0.12712972
0.17939778 -0.23830163 0.17553742 -0.1310254 0.082136594 0.2256439 0.08155452 -0.2368443
0.11363181 -0.19722979 0.0716765 0.09341845 0.13928206 -0.07717488 -0.15891522 -0.10745876
0.25202414 -0.1343767 -0.0573463 -0.13812251 0.32165453 0.20961346 -0.1756203 -0.1406686

linear.weight f4 [2, 100]
00000000: 6e1c 2f3f e4f7 ebbe 256c 58be cd4d dfbe
00000010: b316 eb3d d476 4cbe ab76 453f a4a6 053f
00000020: a8e7 493e 107f 78bd 0e10 003f a800 8a3f
00000030: 8ceb 743e 4b5d f9be 9b2b 803d d44b bebe
00000040: dd58 32be 086b 473f 607a 5abe ca39 4a3f
00000050: 8da1 503e 7758 143e 3cc3 19be ebcf 153e
00000060: 7ee8 86be 25ad 383e fec2 82be 963b bebd
00000070: 23f9 be3c a795 7f3e fcaf 723d 33f2 21bf
00000080: 38e3 553e e3bd 13be 23f0 ac3e aa4e 0ebf
00000090: 21c6 163f d3ff f23f cdcd d93e 59b9 4fbf
000000a0: a969 253f 7225 84be 5036 583e ab4f ef3e
000000b0: aeb2 e83e 26fd 05bf 8b5d 39bf 36d7 ecbe
000000c0: f47f 153f 3c49 3cbe 14bf 273f e56d eebe
000000d0: cd7e 183f a5c2 493f 86d3 21be df72 12be
000000e0: 207d 6f3e b251 36bf a86b 0d3f b3e9 303e
000000f0: 21c1 813e 51ec 543e 4852 cd3e 69ad 373d
00000100: 3759 fdbd 539e 49bf 6a99 47be c88f 65be
00000110: 553e b23e cbdc 283f 85bb e23e b0ee 06bf
00000120: fc95 f73d 25b7 b7be d003 953e 478e 47bd
00000130: 4ff6 243f dbdf 38be 2e6f 16be 713a 0d3f
00000140: cc7f 8abe e1a7 d5be abd8 d33e 5fb5 1e3e
00000150: a06a 0cbe 24c0 efbe a619 d9be e7ad ecbe
00000160: c8ee 6bbe df25 fa3e 7dd9 febd 5ed5 30be
00000170: b5c4 44be 375a 9abe 374a 53bf 338a e6be
00000180: 3bc4 353f f5a3 9e3e f4c6 1abe 03ad b6be
00000190: 1e03 2dbf 100d ec3e 3de9 40be 71da dc3e
000001a0: 4273 ee3d 25b4 bc3c 558d 43bf 3fcb e2be
000001b0: 60fa fb3d 1381 863d 9aff fdbe feb6 88bf
000001c0: 1884 c63d 1e5a f73e 4ec0 053e 4116 023e
000001d0: f8fd d0bd 890b 49bf 9465 01be 8a31 48bf
000001e0: a4ed 433e 270c f93d 7be0 fabd 8486 9d3b
000001f0: 9f29 81be 7b75 d53d 35ae 883e 1af8 9f3d
00000200: f606 8abe 11d4 493e ab66 083e f3ac 233f
00000210: 46f0 563e 4ae0 ebbd 2290 acbe 0d9f 0c3f
00000220: 1a3e 0ebf fe61 efbf 2d94 d6be afe8 4a3f
00000230: d721 20bf e4f8 b83d c623 5b3e 959f a6be
00000240: 2ea2 e9be 5d7c 043f fc2a 3b3f ee74 ec3e
00000250: fe2f 13bf 20bc 91bd d18b 2abf e8e9 f33e
00000260: b3eb ffbe 497d 48bf 39e1 03be dc36 c73c
00000270: eadb 723e c7eb 2d3f 1d9f 0ebf dbfe 023e
00000280: 8da3 7c3e 2804 0bbe 44ab ecbe 7ee7 b33c
00000290: bbc8 d3bd 1032 4e3f 8429 06be c4c0 56be
000002a0: 405f b7be fad8 2fbf 66a4 e3be 383f 073f
000002b0: c72c 4a3d 62f2 ba3e 27f8 85be f0f0 b7bd
000002c0: ce98 21bf d331 bdbd 1182 9bbd ba1d 0dbf
000002d0: 3dc7 a23d 6cef e63e da3f e4be f10e 123e
000002e0: a8fe 4bbd b13f b13e 6360 d93e a3ee 0c3f
000002f0: 38fa 99bd 0b50 02bf 3b99 9f3c f20f 8f3d
00000300: e1f3 603d dab0 97be 9ef2 4f3f 0d5a ed3e
00000310: 2515 3abf 28df abbe d5a8 26be 5877 b23e
0.68402755 -0.46087563 -0.21135004 -0.43614045 0.11478939 -0.19967204 0.771342 0.522074
0.19717276 -0.06066805 0.500245 1.078145 0.23917979 -0.4870399 0.06258317 -0.37167227
-0.17416711 0.7789769 -0.21335745 0.7899443 0.20374127 0.14486872 -0.15015882 0.14630096
-0.26349252 0.180348 -0.25539392 -0.09288709 0.023312157 0.24959432 0.059249863 -0.6326019
0.20887458 -0.14427905 0.3377696 -0.5558878 0.5889607 1.8984321 0.42539826 -0.81142193
0.6461435 -0.25809819 0.21114469 0.4674047 0.45448822 -0.523394 -0.7240836 -0.46257943
0.58398366 -0.18387312 0.6552594 -0.46568218 0.5956848 0.7881263 -0.15803346 -0.14301632
0.23387575 -0.7121841 0.55242395 0.17276649 0.25342658 0.20793273 0.40101838 0.04484311
-0.12370532 -0.7875721 -0.19492117 -0.2241813 0.3481318 0.65961903 0.4428369 -0.5270796
0.12089154 -0.35881916 0.2910447 -0.04871967 0.6443834 -0.18054144 -0.14690849 0.551673
-0.27050626 -0.41729644 0.41376242 0.15498875 -0.13712549 -0.4682628 -0.4240238 -0.46226427
-0.23040307 0.48857018 -0.12443826 -0.17268893 -0.19215663 -0.30146953 -0.8253512 -0.45027313
0.7100255 0.30984464 -0.15114957 -0.35678872 -0.6758288 0.46103716 -0.18838973 0.43135408
0.116430774 0.023035118 -0.7638753 -0.4429569 0.123036146 0.06567588 -0.4960907 -1.0680845
0.09693164 0.4831094 0.1306164 0.12703802 -0.10204691 -0.78533226 -0.12636405 -0.7820059
0.19133621 0.12160521 -0.122498475 0.0048072953 -0.25227067 0.10422798 0.2669541 0.078109935
-0.26958436 0.19709803 0.13320415 0.63935775 0.20990095 -0.11517389 -0.33703715 0.5493019
-0.5556351 -1.870178 -0.41909924 0.79261297 -0.62551636 0.09031847 0.21400365 -0.32543626
-0.45631546 0.51752263 0.73112464 0.4618296 -0.57495105 -0.0711596 -0.6661959 0.47639394
-0.49984512 -0.7831617 -0.12878884 0.024318151 0.23716703 0.6793789 -0.5571154 0.12792532
0.24671765 -0.13575804 -0.46224415 0.02196097 -0.10341021 0.8054514 -0.13101774 -0.20971972
-0.35814857 -0.68690455 -0.44461364 0.5283084 0.04935911 0.36513048 -0.26165888 -0.08981502
-0.63123786 -0.09238019 -0.075931676 -0.55123484 0.07948158 0.4510454 -0.44579965 0.14263512
-0.049803406 0.34618905 0.4245635 0.5505163 -0.075184286 -0.50903386 0.019482246 0.06985463
0.05492008 -0.29627115 0.8122958 0.46357766 -0.72688514 -0.33568692 -0.16275342 0.34856677

linear.bias f4 [2]
00000000: a530 683e 598c 2a3e
0.22674806 0.16655101
